models/dark_vessel_model.pth (torch, 627592 bytes, 15 tensors)

encoder.weight_ih_l0 f4 [512, 4]
0	0xbd109d02	-0.035305984
1	0x3c3b268d	0.011422765
2	0x3cc63151	0.024193438
3	0x3db93ecd	0.090451814
4	0xbcf3af0e	-0.029746559
5	0xbde46320	-0.11151719
6	0xbd8a2f1b	-0.06747266
7	0x3d8ad5ad	0.06779037
8	0xbe054635	-0.13015063
9	0x3c1cd9bd	0.009573397
10	0x3d4b897b	0.04969166
11	0x3c9e50aa	0.019325573
12	0x3baf33f9	0.005346772
13	0xbb002ca8	-0.0019557867
14	0x3b7aa9ab	0.0038248103
15	0x3cdae0ed	0.026718581
16	0xbdcc1ab9	-0.099660344
17	0xbc450b6d	-0.01202665
18	0x3c185feb	0.009300212
19	0x3d27473d	0.040839422
20	0xbda16e7d	-0.07882402
21	0xbd703e59	-0.05865321
22	0xbcd5cd32	-0.026098821
23	0x3da02991	0.07820428
24	0x3cb23675	0.021754483
25	0xbcde7eb1	-0.02716002
26	0x3d92d12a	0.07168801
27	0xbcd82972	-0.02638695
28	0x3d3c5ee1	0.04598892
29	0xbc8d8113	-0.017273461
30	0x3d7ffced	0.06249707
31	0x3e227eb4	0.15868646
32	0x3d80550b	0.06266221
33	0x3a57eb38	0.00082366494
34	0x3d7c5307	0.06160262
35	0x3bb99f56	0.0056647463
36	0x3db47899	0.08812065
37	0x3def3ee5	0.11681918
38	0xbd8ab26b	-0.06772312
39	0x3d6a517f	0.057206627
40	0xbc83fa81	-0.01611066
41	0x3c10bbf3	0.008833873
42	0xbdff4848	-0.124649584
43	0xbe08e419	-0.13368262
44	0xbd3aff5f	-0.045653697
45	0xbd80e882	-0.06294347
46	0x3d09ce0d	0.03364377
47	0x3c9d64d4	0.019213118
48	0x3caf2598	0.02138023
49	0x3bd01b75	0.0063509294
50	0xbce7f766	-0.028316211
51	0xbcf14c7f	-0.029455421
52	0xbcadee30	-0.02123174
53	0xbd2d29ef	-0.04227632
54	0x3e0cd72f	0.13753961
55	0xbd4c7d21	-0.04992402
56	0x3d7f8b53	0.06238873
57	0x3db3782f	0.087631576
58	0x3cf31c45	0.029676566
59	0x3dbf115d	0.09329484
60	0x3ddc93bc	0.107703656
61	0xba87cdb1	-0.0010360983
62	0x3dc6cc1f	0.09706902
63	0x3d12b2b1	0.035814945
64	0xbdc63011	-0.09677137
65	0xbd1fcfc5	-0.039016504
66	0xbd67e090	-0.056610644
67	0x3dcd3cf4	0.100213915
68	0xbd832b21	-0.064047106
69	0x3ca339ec	0.01992508
70	0xbd36d353	-0.04463513
71	0x3d944e9a	0.072415546
72	0x3ccd6353	0.025071776
73	0x3ca3e98e	0.020008828
74	0x3dc188e3	0.09449937
75	0xbdad8e28	-0.0847438
76	0xbde630e7	-0.11239796
77	0xbd949ef4	-0.072568804
78	0xbde42151	-0.11139167
79	0x3e082c50	0.13298154
80	0x3d4406a3	0.04785789
81	0x3dad67b2	0.08467044
82	0x3c913731	0.017726513
83	0xbca2a3fc	-0.019853584
84	0x3c2a7b58	0.010405384
85	0xbd9f4f53	-0.07778802
86	0xbdc96490	-0.09833634
87	0xbd7dc36a	-0.06195394
88	0xbd9f4751	-0.077772744
89	0xbd657790	-0.056022227
90	0xbd9372ad	-0.07199607
91	0xbce39d71	-0.027785035
92	0xbdaab5c0	-0.08335447
93	0x3d2f1717	0.04274663
94	0x3da921c7	0.08258396
95	0x3da8a12f	0.08233868
96	0xbe26e618	-0.16298711
97	0xbdc9d541	-0.09855128
98	0xbd91369c	-0.07090494
99	0x3d0d1819	0.03444681
100	0xbd520fff	-0.051284786
101	0xbd4f3794	-0.050590113
102	0xbcf93a90	-0.030423433
103	0xbb007380	-0.0019600093
104	0x3c9ac641	0.018893363
105	0x3dac268d	0.084057905
106	0xbdfa5240	-0.12222719
107	0xbe833607	-0.25627157
108	0x3d47dd3e	0.048794977
109	0x3c62a5d3	0.013833481
110	0xbbd38a9a	-0.0064557316
111	0x3b9c5f2f	0.004772089
112	0x3d44407e	0.047913067
113	0xbc1d7860	-0.009611219
114	0xbc80f926	-0.015743803
115	0x3d9a0ba2	0.0752175
116	0xbbac8452	-0.0052647972
117	0x3d2016aa	0.039084114
118	0x3d0cc702	0.034369476
119	0xbdd90712	-0.10597052
120	0xbe179355	-0.14802296
121	0xbd914d78	-0.07094854
122	0x3ce57d42	0.02801383
123	0xbda27d36	-0.07934038
124	0xbe1e55a6	-0.1546236
125	0xbe19216b	-0.14954154
126	0xbdb03ec0	-0.086057186
127	0xbc1fe48a	-0.009759078
128	0xbdbaa342	-0.0911317
129	0x3dc397db	0.095504485
130	0xbd6279fe	-0.055292122
131	0x3e548536	0.20753941
132	0xbc85e303	-0.0163436
133	0x3ab83e7e	0.001405671
134	0xbb9123ca	-0.004429315
135	0x3daf9b7f	0.085745804
136	0x3c64070a	0.013917694
137	0x3d6473d9	0.055774543
138	0xbd3d6763	-0.046241175
139	0x3d8cc952	0.06874336
140	0x3d918dc3	0.07107117
141	0xbd36f86f	-0.04467052
142	0x3d3744b2	0.044743247
143	0x3ccb5d18	0.024824664
144	0x3cef671c	0.029223971
145	0xbc4572f8	-0.0120513365
146	0x3e036063	0.12829737
147	0x3dd85b3e	0.10564278
148	0x3da755f7	0.08170693
149	0x3e18fde9	0.14940609
150	0x3e02f103	0.12787251
151	0xbdbe4fb1	-0.09292544
152	0xbc11ea48	-0.008905955
153	0xbd591248	-0.05299595
154	0x3d524aeb	0.05134098
155	0x3d084bc5	0.033275384
156	0x3d622fde	0.05522143
157	0xbd15609c	-0.036469087
158	0x3d9ede12	0.077572
159	0x3ddaf706	0.10691647
160	0x3da4dfa7	0.08050471
161	0xbd1f7b10	-0.03893572
162	0x3b19690f	0.0023408567
163	0xbd66a8ab	-0.056313198
164	0xbcff939a	-0.031198312
165	0x3d90b1f7	0.07065194
166	0xbd55f81e	-0.052238576
167	0x3bbe815e	0.0058137616
168	0x3dd749ec	0.10512146
169	0x3d9fcfd0	0.07803309
170	0xbd1418a4	-0.03615631
171	0xbe30e04a	-0.1727306
172	0x3d282b8c	0.041057155
173	0x3d26721c	0.040636167
174	0x3ce8955c	0.028391533
175	0xbbee9992	-0.0072814906
176	0xbd056d7d	-0.03257512
177	0xbcae3881	-0.021267178
178	0xbcabf9a0	-0.020993054
179	0x3b8c9310	0.004289992
180	0x3bfd1d6d	0.007724455
181	0x3cd95ca0	0.026533425
182	0x3d6fc858	0.058540672
183	0x3c419bd7	0.01181694
184	0x3df0b594	0.11753383
185	0xbd7d176f	-0.061789926
186	0x3d7642d3	0.060122322
187	0x3dbe9847	0.09306388
188	0xbc8748f4	-0.016514279
189	0xbbf3f65a	-0.007445139
190	0x3e0403cd	0.12892075
191	0xbcb96050	-0.022628933
192	0x3cb7cf97	0.022437854
193	0xbd664d28	-0.056225926
194	0xbc0d509d	-0.008625177
195	0xbc16ebdb	-0.009211506
196	0xbd923a1e	-0.07139991
197	0xbdf9f386	-0.122046515
198	0x3d160d51	0.036633793
199	0x3c070023	0.008239779
200	0xbc2c6bd0	-0.010523751
201	0x3d802630	0.06257284
202	0x3da840a8	0.08215457
203	0x3c45af63	0.012065741
204	0x3d88fb42	0.066885486
205	0xbdcba226	-0.09943037
206	0x3c7014a8	0.014653362
207	0x3ddb1e1b	0.106991015
208	0xbd941ec0	-0.072324276
209	0xbd2e206b	-0.042511385
210	0x3db71098	0.08938712
211	0xbe376760	-0.17910528
212	0xbd90dee9	-0.07073767
213	0xbe07e9c7	-0.13272773
214	0xbe14ce1f	-0.14531754
215	0x3d84230c	0.06451997
216	0x3b172c05	0.002306701
217	0xbcbac6f2	-0.022799943
218	0xbcde4526	-0.027132582
219	0xbdc69b4a	-0.09697588
220	0x3d362878	0.044472188
221	0x3c370b7c	0.011172172
222	0xbd11c054	-0.03558381
223	0x3c229ae9	0.009924629
224	0xbcebbc0a	-0.028776187
225	0x3d19e5e1	0.037572745
226	0x3c759ee6	0.014991498
227	0x3d0fc034	0.03509541
228	0x3c457a17	0.012053034
229	0x3d56ae5b	0.052412372
230	0x3bffb319	0.0078033325
231	0xbc1d817b	-0.00961339
232	0xbd1463c3	-0.036227953
233	0xbd41b7f6	-0.04729458
234	0x3d1ad6c6	0.03780248
235	0x3d4cc073	0.04998822
236	0xbe26eb59	-0.16300716
237	0x3d52f315	0.051501352
238	0x3d8d9010	0.06912243
239	0x3d936613	0.071972035
240	0x3d067b58	0.032832474
241	0xbc677128	-0.0141261
242	0x3d853c75	0.06505672
243	0xbc151a99	-0.00910058
244	0x3daf616d	0.08563504
245	0x3cba4e2b	0.022742352
246	0xbd891c47	-0.066948466
247	0x3db69f8e	0.089171514
248	0x3e5c03b5	0.21485789
249	0xbd037c3b	-0.032100897
250	0x3d678c3d	0.056530226
251	0x3cb7f806	0.022457134
252	0x3cb4e6db	0.022082737
253	0xbd83bc77	-0.06432431
254	0xbd9930cf	-0.074800126
255	0x3c149bda	0.009070361

encoder.weight_hh_l0 f4 [512, 128]
0	0x3d06919a	0.0328537
1	0x3d68d0c8	0.056839734
2	0xbc9e933b	-0.019357314
3	0x3ad2ca38	0.0016081994
4	0xbd570592	-0.052495547
5	0xbde778fb	-0.11302372
6	0xbd912a78	-0.070881784
7	0x3c3d884f	0.011568143
8	0xbd126daf	-0.035749134
9	0xbdaa6f56	-0.08322017
10	0xbd831865	-0.06401137
11	0xbd6d64bb	-0.057957392
12	0xbbdecb82	-0.0067991624
13	0x3d8abf2b	0.06774744
14	0x3ce266a3	0.027636832
15	0xbd0780a7	-0.033081677
16	0x3b0ec53f	0.0021785048
17	0xbd6a9acc	-0.057276532
18	0x3c8da5ef	0.017291037
19	0xbd8110e2	-0.06302048
20	0xbd946888	-0.072465
21	0x3c6d0659	0.014466845
22	0xbd81e47a	-0.063424066
23	0xbdaf3890	-0.0855571
24	0x3d82ab2e	0.06380306
25	0x3db14876	0.08656399
26	0xbda42043	-0.08013966
27	0x3dadd9c0	0.08488798
28	0xba110533	-0.0005532086
29	0x3d2a8a00	0.041635513
30	0x3d9404f6	0.07227509
31	0x3d52658f	0.051366385
32	0xbb12cc99	-0.0022399782
33	0x3cb1a255	0.021683851
34	0x3d8a5dfc	0.06756207
35	0x3d570e6d	0.052503992
36	0xbb4915b8	-0.0030683111
37	0x3cf374a6	0.029718708
38	0xbc2cb0bb	-0.010540183
39	0x3aa63fa6	0.0012683764
40	0x3d002a49	0.031290326
41	0xbc662fdc	-0.0140494965
42	0x3dd848ec	0.10560784
43	0x3d5c049e	0.05371534
44	0x3d35840e	0.04431539
45	0x3da061fc	0.07831189
46	0x3c829517	0.015940232
47	0xbdace7b4	-0.08442631
48	0x3d45a83c	0.048256144
49	0x3d1a7d47	0.03771713
50	0xbd87b6cc	-0.066266626
51	0x3b7d1899	0.0038619398
52	0xbd905317	-0.07047098
53	0xbcece82b	-0.0289193
54	0x3cc18043	0.02362073
55	0x3c1592b3	0.009129214
56	0x3c6325d2	0.0138639975
57	0x3bcf78c9	0.0063315374
58	0x3da8a4a7	0.0823453
59	0x3dc77ffb	0.09741207
60	0xbd313db8	-0.04327175
61	0x3d76d36c	0.06026022
62	0x3c01c13d	0.007919607
63	0xbcf902a6	-0.03039677
64	0x3d08e3da	0.03342042
65	0x3cb2cd5e	0.021826442
66	0xbc813049	-0.015770094
67	0x3cbd62d8	0.023118421
68	0xbda81f66	-0.08209114
69	0xbd731f9a	-0.05935631
70	0x3c5bb045	0.013408725
71	0x3cffc14e	0.031220105
72	0xbcacae3e	-0.021079179
73	0xbda68456	-0.0813071
74	0x3dce7711	0.10081304
75	0x3de591bc	0.11209437
76	0xbda54dfb	-0.08071514
77	0x3d2fe2d3	0.042940926
78	0x3cc52b75	0.024068573
79	0x3c1cfffb	0.009582515
80	0xbd821b42	-0.06352855
81	0x3bcc4155	0.006233374
82	0xbd5a4ec6	-0.05329778
83	0x3d825cad	0.06365333
84	0xbdb69f86	-0.089171454
85	0x3c8f6dd0	0.017508417
86	0xbbbb76f4	-0.0057209674
87	0xbd180336	-0.037112437
88	0xbda2922c	-0.07938036
89	0x3d47d66d	0.048788477
90	0xbd679be7	-0.056545164
91	0x3db51dbc	0.08843562
92	0xbcf178ef	-0.029476611
93	0xbd62eabf	-0.055399653
94	0xbd3f5010	-0.046707213
95	0x3c25e49d	0.010125306
96	0x3d8ec981	0.069720276
97	0x3d7d3daa	0.061826386
98	0xbcbb2107	-0.022842897
99	0x3b89262a	0.0041854577
100	0x3d884b87	0.06655031
101	0x3d804ee4	0.06265047
102	0xbd8bd4b1	-0.06827677
103	0x3d55b699	0.05217609
104	0xbcf3a635	-0.02974234
105	0x3d3dcbdb	0.04633699
106	0x3c61f6c3	0.013791743
107	0x3d725bf3	0.05916972
108	0x3d90f104	0.0707722
109	0x3c549f20	0.0129773915
110	0xbd8dce82	-0.06924154
111	0xbc1d8d61	-0.009616227
112	0x3ad8b70f	0.0016534048
113	0x3d383d65	0.044980425
114	0x3d4e66c3	0.05039097
115	0xbd873e45	-0.06603674
116	0xbcfe9d91	-0.031080993
117	0xbc4613fe	-0.012089727
118	0xbd4ba800	-0.049720764
119	0xbd03645b	-0.03207813
120	0x3ce6a72e	0.02815589
121	0x3d9d16e5	0.076703824
122	0xbd6215ac	-0.05519645
123	0x3cba15a1	0.022715392
124	0xbc675107	-0.0141184395
125	0xbd4f1c81	-0.050564293
126	0x3c1c3572	0.009534227
127	0xbae5a8ad	-0.0017521583
128	0x3d4f75d1	0.050649468
129	0xbc805269	-0.015664296
130	0x3d3a036b	0.045413416
131	0x3cb7506a	0.022377212
132	0x3d9c51cb	0.07632788
133	0x3cad4a18	0.021153495
134	0xbd02a7c7	-0.031898286
135	0x3d460e79	0.048353646
136	0x3c1a647f	0.009423374
137	0xbc441f81	-0.011970402
138	0x3d9d27f2	0.076736346
139	0xbdbf8ee9	-0.0935343
140	0xbd39049b	-0.045170408
141	0xbd997b02	-0.07494165
142	0x3de7086f	0.112809055
143	0xbd88e333	-0.0668396
144	0x3cb6b757	0.02230422
145	0x3b8dda28	0.004328985
146	0x3c41e3cc	0.011834096
147	0xbd7d9ccf	-0.061917122
148	0x3d26488a	0.040596522
149	0x3db87cc7	0.090081744
150	0x3d8fdd1e	0.07024597
151	0xbd9fcfe6	-0.07803325
152	0x3d308bc4	0.04310204
153	0xbd3ba725	-0.0458137
154	0xbd7d8c5a	-0.061901428
155	0xbd45ec0b	-0.04832081
156	0x3d24cfc8	0.04023722
157	0xbc545652	-0.0129600335
158	0xbc9d0291	-0.019166263
159	0x3cb7b6e7	0.022426082
160	0x3d85abeb	0.065269314
161	0xbd529709	-0.05141357
162	0xbd46405b	-0.048401218
163	0xbd4d2afa	-0.050089814
164	0xbd9c3d32	-0.076288596
165	0xbd06efc5	-0.032943506
166	0x3d50c4ad	0.050968815
167	0x3d83257e	0.064036354
168	0xbd0e9b2f	-0.034815963
169	0x3d1758da	0.03694997
170	0x3d61806d	0.055054117
171	0xbc84bf84	-0.016204603
172	0xbd958241	-0.073002346
173	0xbcffb929	-0.03121622
174	0x3c547995	0.012968441
175	0xbd912b99	-0.07088394
176	0xbdb2b6a7	-0.087262444
177	0x3d6f4c1d	0.058422197
178	0x3db43a0e	0.088001356
179	0xbd3624e6	-0.044468783
180	0xbd95b5ea	-0.07310088
181	0x3a33cefb	0.00068591506
182	0x3c5b1941	0.01337272
183	0x3d4bc4aa	0.0497481
184	0x3ca4f1ca	0.020134825
185	0xbd16578d	-0.03670459
186	0x3d848cb7	0.06472152
187	0x3dc4ad50	0.09603369
188	0x3d06ddeb	0.03292648
189	0x3de7241b	0.112861834
190	0xbd798bd8	-0.06092438
191	0x3d005ea9	0.031340275
192	0xbd5b9212	-0.0536061
193	0x3b44dbd3	0.0030038252
194	0x3b733018	0.0037107524
195	0xbcbd109a	-0.023079205
196	0xbdc88198	-0.09790343
197	0x3c759c1e	0.0149908345
198	0x3cdb2a9a	0.026753712
199	0x3d91babd	0.071156956
200	0x3d723835	0.059135634
201	0x3da08652	0.078381196
202	0xbdaad241	-0.08340884
203	0x3de02b7a	0.109457925
204	0x3d869098	0.06570548
205	0x3c11ef2e	0.008907123
206	0xbb86723a	-0.0041029723
207	0x3ce1d530	0.027567476
208	0xbdc68b47	-0.09694534
209	0x3d80c8c8	0.06288296
210	0xbd8a06cf	-0.0673958
211	0x3d525296	0.05134829
212	0x3cdd51cf	0.027016548
213	0x3dcfc46c	0.101448864
214	0x3d4318c3	0.047631036
215	0x3d944fda	0.07241793
216	0xbd95f1ca	-0.07321508
217	0xbd6b03d3	-0.057376694
218	0x3dc951a0	0.09830022
219	0xbd596e5c	-0.053083763
220	0x3c9e0e26	0.019293856
221	0xbc279114	-0.01022746
222	0x3d48bc3a	0.04900763
223	0x3db67df3	0.08910742
224	0xbd1fefc0	-0.039047003
225	0xbd7970f9	-0.060898755
226	0xbd374d25	-0.044751305
227	0xbcf8a5e9	-0.03035255
228	0x3c19e82b	0.009393732
229	0x3dc8206e	0.097718105
230	0x3c88fe2e	0.016722765
231	0x3d8af8ea	0.06785758
232	0x3d92dc9a	0.07170983
233	0xbd40244c	-0.046909615
234	0xbda48664	-0.080334455
235	0x3cac27c6	0.02101506
236	0x3cb3f8d8	0.021969244
237	0x3cd6ce3a	0.026221383
238	0xbd196113	-0.037446093
239	0xbd12d343	-0.035846006
240	0x3d03ecb9	0.03220818
241	0xbda9ed18	-0.08297175
242	0x3d40d338	0.047076434
243	0xbd242313	-0.040072512
244	0xbc1b9448	-0.009495802
245	0x3c0f2caf	0.008738681
246	0x3d8c9657	0.068646125
247	0xbd2051ef	-0.039140638
248	0x3a5779a1	0.0008219723
249	0x3ce47820	0.027889311
250	0xbde90d9c	-0.11379549
251	0xbd28decb	-0.041228097
252	0xbd5d3216	-0.054002844
253	0xbdb3b1a7	-0.08774119
254	0x3d317555	0.043324787
255	0xbd74ac8c	-0.059734866

encoder.bias_ih_l0 f4 [512]
0	0xbd610bc8	-0.054942876
1	0x3d34a76f	0.04410499
2	0x3d7664e0	0.060154796
3	0xbcc27518	-0.023737475
4	0x3d5443d0	0.051822484
5	0x3cc37912	0.023861442
6	0x3df8b1b0	0.12143266
7	0x3b242993	0.0025049194
8	0x3d2fdfc1	0.042937998
9	0x3c84bc7a	0.016203154
10	0xbccd07c9	-0.025028126
11	0x3c10a7e6	0.008829093
12	0x3dad395a	0.084582046
13	0xbd97bfde	-0.07409643
14	0xbdb4fedd	-0.08837674
15	0x3d35fc82	0.044430263
16	0xba7a4941	-0.0009547659
17	0xbd24aab7	-0.04020187
18	0xba9dd54d	-0.0012041718
19	0xbdadeef2	-0.08492841
20	0xbc0e8346	-0.00869829
21	0xbd7030c2	-0.05864025
22	0xbd9c0fa2	-0.07620169
23	0x3da91085	0.08255104
24	0x3d448ba6	0.04798474
25	0x3b52160b	0.0032056596
26	0x3af66d44	0.0018800874
27	0xbd8e1e69	-0.06939394
28	0x3d928f68	0.07156259
29	0x3cb4eee8	0.022086576
30	0x3c7d300c	0.01545335
31	0xbd44fdbd	-0.048093546
32	0xbd7b5146	-0.061356805
33	0x3c825f7d	0.015914673
34	0xbd7c3720	-0.06157601
35	0x3cdf127f	0.0272305
36	0x3dd36b65	0.10323218
37	0x3defc64c	0.11707744
38	0x3c876399	0.016526984
39	0x3bcb5559	0.0062052426
40	0xbcae3d8e	-0.021269586
41	0xbcc41ab2	-0.02393851
42	0x3dd43a03	0.10362627
43	0xbd7d09f0	-0.061777055
44	0xbd98b23e	-0.07455872
45	0x3d444fab	0.04792754
46	0xbd334ede	-0.043776385
47	0xbc62a8aa	-0.013834158
48	0x3d210a07	0.039316203
49	0x3ceb5018	0.028724715
50	0x3da808ff	0.08204841
51	0x3c996232	0.018723581
52	0xbb984b3a	-0.0046476396
53	0x3dadd659	0.08488149
54	0x3dda5492	0.10660662
55	0x3db1a4fb	0.08674046
56	0xbd14f3ee	-0.036365442
57	0x3dab5598	0.08365935
58	0xbd9df858	-0.077133834
59	0x3d6de979	0.058083985
60	0xbdb31518	-0.08744258
61	0xbd2003f6	-0.039066277
62	0xbd479dd5	-0.048734505
63	0x3c6e9212	0.014561193
64	0xbc913cfd	-0.017729277
65	0x3d30ba8c	0.043146655
66	0x3d96fb27	0.07372122
67	0xbdaadce8	-0.08342916
68	0x3dd502a8	0.10400897
69	0x3c47c537	0.012193016
70	0xbd7a6503	-0.06113149
71	0x3cf32853	0.029682314
72	0x3b6bc17f	0.0035973487
73	0x3d85cd34	0.0653328
74	0xbd8059d1	-0.06267131
75	0xbd1e2db3	-0.0386178
76	0xbd0064cb	-0.031346124
77	0xbd6e35ad	-0.058156658
78	0x3d815ab4	0.063161284
79	0x3d050c39	0.03248236
80	0x3dba8f31	0.09109343
81	0x3ce5f899	0.028072642
82	0xbd6962a8	-0.05697885
83	0xbc2a6a39	-0.010401302
84	0xbd29df49	-0.041472707
85	0x3c3ba07b	0.011451836
86	0x3d5bc098	0.05365047
87	0x3d03caad	0.03217571
88	0xbcc267ae	-0.023731079
89	0xbc38ba39	-0.011274868
90	0xbda5dfe0	-0.080993414
91	0x3d7472fa	0.059679963
92	0x3c33b646	0.01096875
93	0x3d7829b5	0.06058665
94	0x3c852d34	0.016256906
95	0x3d22c995	0.039743025
96	0x3cdc36e2	0.026881639
97	0x3de91363	0.11380651
98	0x3d3436e5	0.043997664
99	0xbca7b5a7	-0.02047236
100	0x3d56acda	0.052410938
101	0xbce7aae9	-0.028279739
102	0x3ddf81fa	0.10913463
103	0xbca3ff70	-0.020019263
104	0xbd04524a	-0.03230504
105	0x3db3d329	0.0878051
106	0xbb9dbfc4	-0.00481412
107	0xbcd8abca	-0.026449103
108	0xbc386a6b	-0.011255841
109	0x3d6431d2	0.055711575
110	0xbcc9774b	-0.024593016
111	0x3dbd964e	0.09257184
112	0x3d3a9e14	0.04556091
113	0xbc0af719	-0.008481764
114	0xbd377ddc	-0.044797763
115	0x3d5f245a	0.054478027
116	0xbd98f97a	-0.07469459
117	0xbd983c0a	-0.074333265
118	0x3d37c502	0.044865616
119	0xbd136067	-0.03598061
120	0x3da6b4fd	0.081399895
121	0x3b5502b8	0.0032502841
122	0xbcae1463	-0.021249956
123	0x3d83b1f4	0.06430426
124	0x3d809de0	0.06280112
125	0xbddb37c1	-0.107039936
126	0x3d96bac4	0.073598415
127	0x3d4aea66	0.049539946
128	0xbd9dac4f	-0.07698881
129	0x3c8ec60a	0.017428417
130	0x3da4ee37	0.080532484
131	0xbbc76fb4	-0.006086314
132	0x3e09118f	0.13385604
133	0xbd4bd45b	-0.049763065
134	0x3db78eb0	0.08962762
135	0x3de77453	0.11301484
136	0xbcbd3911	-0.0230985
137	0xbc199a81	-0.0093752155
138	0xbcf55175	-0.029946068
139	0x3d000afa	0.031260468
140	0x3b4bae1f	0.0031079126
141	0x3d8d6789	0.069045134
142	0xbd0dba95	-0.034601767
143	0x3d1bdfbd	0.03805517
144	0x3d98a380	0.0745306
145	0x3d2b5cb4	0.041836455
146	0x3d223fe2	0.039611705
147	0x3c46e0a0	0.012138516
148	0x3d9b7033	0.0758976
149	0x3d0073e9	0.03136054
150	0xbd60df31	-0.054900352
151	0x3d0b30d6	0.03398212
152	0x3d4a677b	0.049415093
153	0x3db72f9a	0.08944626
154	0xbc876787	-0.016528858
155	0xbbd68141	-0.00654617
156	0xbd954d1c	-0.07290098
157	0x3d3386c5	0.043829698
158	0x3d72c94a	0.059273995
159	0x3d175d86	0.036954425
160	0xbc860bf2	-0.016363118
161	0xbce22dfa	-0.027609814
162	0xba30aadd	-0.0006739328
163	0x3dc7db6a	0.09758647
164	0x3dcb0ea5	0.099149026
165	0x3ddbd406	0.107338
166	0x3d878364	0.06616858
167	0x3da0fefe	0.07861136
168	0x3d7b1edc	0.061308727
169	0x3cbbf057	0.022941751
170	0x3c7979ae	0.015226765
171	0x3d9bf479	0.07614989
172	0x3d3eaa78	0.04654929
173	0x3d89bfdf	0.0672605
174	0x3dabf877	0.08397
175	0x3daa0a23	0.08302715
176	0x3dc88a16	0.09791963
177	0xbd018672	-0.031622358
178	0x3d3af97d	0.045648087
179	0x3cdab549	0.026697772
180	0xbc0152fc	-0.00789332
181	0x3d9d6040	0.07684374
182	0x3dadab43	0.08479931
183	0x3da52d6e	0.08065306
184	0x3d8414af	0.064492576
185	0x3bab12ae	0.0052207327
186	0x3c01bd2d	0.007918638
187	0x3da00523	0.0781348
188	0x3dc0f6a6	0.094220445
189	0x3d0b8702	0.0340643
190	0x3db08703	0.086195014
191	0xbd95ac6a	-0.07308276
192	0x3d82031d	0.0634825
193	0xbcb2c289	-0.021821277
194	0x3db69458	0.08915013
195	0x3c87ebe7	0.01659198
196	0x3dceeb4a	0.101034716
197	0x3c7cb05f	0.0154229095
198	0x3da69e5e	0.08135675
199	0xbcf16848	-0.02946867
200	0x3d9245c2	0.071422115
201	0x3deeb719	0.11656017
202	0xbcd51977	-0.02601312
203	0x3b0c3574	0.0021394165
204	0x3c826051	0.015915068
205	0x3d1a35ff	0.03764915
206	0xbc88bbdd	-0.016691143
207	0x3d4e3f75	0.050353486
208	0xbb82452d	-0.0039755316
209	0x3d2aab99	0.041667555
210	0xbd26d0b0	-0.040726364
211	0x3d0afac3	0.03393055
212	0x3dbab26d	0.09116063
213	0x3ca46fb8	0.020072803
214	0x3bddd705	0.006770017
215	0x3da88659	0.0822875
216	0xbcecb097	-0.028892798
217	0xbcbe84de	-0.023256715
218	0x3cdac5e3	0.026705688
219	0xbd37a5f4	-0.044836
220	0x3cc31b4f	0.023816733
221	0x3d8086d0	0.062757134
222	0x3d6c8707	0.05774596
223	0x3d75b5fb	0.059988003
224	0x3d579a50	0.0526374
225	0x3cd99fba	0.026565421
226	0x3d50527f	0.050859924
227	0x3c743ed1	0.014907555
228	0xbd2796ab	-0.040915173
229	0xbcafef5e	-0.021476444
230	0xbc8df1ec	-0.017327271
231	0x3c7fca1e	0.015612153
232	0x3d36e4d1	0.04465181
233	0x3e099eb0	0.1343944
234	0x3c320a3b	0.010866697
235	0x3c82548a	0.015909452
236	0xbd03f55c	-0.032216415
237	0x3d486dee	0.048932962
238	0x3d898e4f	0.06716596
239	0x3c67b5b5	0.014142443
240	0x3d82467d	0.06361101
241	0x3d92a904	0.071611434
242	0x3d484647	0.048895147
243	0x3d0870ac	0.033310577
244	0xbd8aaa9e	-0.06770824
245	0xbd30ff00	-0.043211937
246	0xbc32f0a3	-0.01092163
247	0xbc86fd7c	-0.016478293
248	0xbba65f35	-0.0050772675
249	0x3d6ddf2f	0.058074173
250	0xbd5f81ea	-0.054567255
251	0x3cfccc9f	0.03085929
252	0xbd5086c4	-0.050909773
253	0x3d12e632	0.035864063
254	0x3c1a1598	0.009404562
255	0xbc64e473	-0.013970482

encoder.bias_hh_l0 f4 [512]
0	0xb7d8dad4	-2.5851106e-05
1	0x3db0e0e7	0.08636647
2	0x3c8e9402	0.01740456
3	0x3d0eefa2	0.0348965
4	0x3c6c2067	0.014412022
5	0x3cde4107	0.027130617
6	0x3caffcf5	0.021482924
7	0x3cf43c4d	0.02981391
8	0xbd1aa0e5	-0.037751097
9	0xbcd46f03	-0.02593184
10	0x3ded2db1	0.115809806
11	0x3df8d530	0.12150037
12	0x3d864b02	0.06557275
13	0x3d835c4c	0.064140886
14	0xbd6b43b0	-0.0574376
15	0x3d4aa9f4	0.049478486
16	0xbca97371	-0.02068493
17	0xbdabd3ae	-0.08389984
18	0x3d7e851e	0.06213867
19	0x3d81884a	0.06324823
20	0xbcebbf3a	-0.028777707
21	0x3d180e52	0.037123032
22	0x3ccab009	0.024742143
23	0x3d7f698f	0.062356528
24	0x3df2aaec	0.11849007
25	0xbc095e80	-0.008384347
26	0x3cf18b25	0.029485295
27	0xbc9319d5	-0.017956654
28	0xbbf7b29e	-0.0075591346
29	0x3c616893	0.013757843
30	0xbd955d91	-0.07293237
31	0xbbf67a26	-0.0075218854
32	0x3db6d008	0.089263976
33	0xbd94cb01	-0.072652824
34	0x3ca37246	0.01995195
35	0xbcb87621	-0.022517266
36	0x3d700cc5	0.058605928
37	0x3e0ebd96	0.13939509
38	0x3dd72a09	0.105060644
39	0x3d42aef9	0.04753015
40	0xbb5de6a8	-0.0033859406
41	0x3da8d62b	0.08243974
42	0x3c3bd5e2	0.011464568
43	0x3b04f189	0.0020285568
44	0x3d416c29	0.04722229
45	0xbda7f88f	-0.08201706
46	0xbccfdf31	-0.02537498
47	0x3d0c58bc	0.03426431
48	0x3d8c2b81	0.06844235
49	0xbd60e130	-0.054902256
50	0x3cdc6013	0.02690128
51	0x3dcced54	0.10006204
52	0xbd8f783b	-0.07005354
53	0x3d181cba	0.03713677
54	0x3dbf773a	0.093489125
55	0xbd04ef0b	-0.03245453
56	0x3d2ffcda	0.042965747
57	0x3df19f52	0.11797966
58	0x3d53ede1	0.05174053
59	0x3e005973	0.12534122
60	0x3cf69f6b	0.030105313
61	0xba6e3109	-0.00090862863
62	0xbd139adf	-0.03603637
63	0x3d98f2a0	0.07468152
64	0x3d87ae86	0.066250846
65	0xbcdf90e6	-0.027290773
66	0xbcc6bce0	-0.024259984
67	0xbd0b91c3	-0.034074556
68	0xbd467570	-0.04845184
69	0x3d435cbd	0.047695864
70	0x3db4feb3	0.088376425
71	0xbd4b7106	-0.049668334
72	0x3b6ee904	0.0036454806
73	0xbd50e10e	-0.05099588
74	0x3de3a662	0.111157194
75	0xbd20b05f	-0.0392307
76	0xbd9398a0	-0.07206845
77	0x3d462add	0.04838072
78	0x3bdf3b52	0.0068124915
79	0x3d73316b	0.0593733
80	0x3b63588f	0.0034690236
81	0x3dbb111b	0.09134122
82	0x3dcbf59c	0.09958956
83	0xbd8df750	-0.06931937
84	0xbca5ec36	-0.020254236
85	0x3d03ce77	0.032179322
86	0x3d790e55	0.060804684
87	0x3d3f306d	0.04667704
88	0x3db0e840	0.08638048
89	0xbd822b12	-0.06355871
90	0xbb865cbf	-0.0041004117
91	0xbd06c3fc	-0.03290175
92	0x3c574492	0.013138907
93	0x3d9c1245	0.07620672
94	0xbb670c6e	-0.0035255211
95	0x3c841d03	0.016127115
96	0xbc8fd2bf	-0.017556546
97	0x3d893aa3	0.06700637
98	0x3c2800d2	0.010254102
99	0x3d4a9340	0.049456835
100	0xbd7b605b	-0.06137119
101	0xbd3035ba	-0.043019988
102	0x3955a719	0.00020375512
103	0xbd94b943	-0.07261898
104	0x3dcc7c51	0.09984649
105	0x3cedb5c8	0.029017344
106	0xbb92b73e	-0.0044774106
107	0x3cd63312	0.0261474
108	0xbba0d79e	-0.004908516
109	0x3bf99506	0.007616642
110	0x3da33d0b	0.079706274
111	0x3d3bc68c	0.045843646
112	0xbc580172	-0.013183938
113	0x3dc56cdd	0.09639905
114	0xbd957d39	-0.07299275
115	0xbc7f68c6	-0.015588945
116	0xbd2f97fe	-0.04286956
117	0x3da7f86e	0.08201681
118	0x3c6655d4	0.014058549
119	0xbd2de16d	-0.04245131
120	0x3c44615c	0.011986103
121	0xbd29eeb5	-0.041487414
122	0xbd20d9ff	-0.039270397
123	0x3d157f6b	0.03649847
124	0x3dbaf482	0.091286674
125	0x3c65ab74	0.014017928
126	0x3d9b5262	0.07584073
127	0xbcce0deb	-0.025153121
128	0x3d19007e	0.037353985
129	0xbc842c85	-0.01613451
130	0xbce67f4e	-0.028136875
131	0x3d12a651	0.035803143
132	0x3dc950ed	0.098298885
133	0xbd09a50b	-0.033604663
134	0x3c80df1e	0.01573139
135	0x3deed2fd	0.116613366
136	0x3d927aa9	0.07152302
137	0xbcfe6368	-0.03105326
138	0x3d654497	0.055973615
139	0x3d8cb8b2	0.06871165
140	0x3cf497c1	0.029857518
141	0x3db338bd	0.08751056
142	0x3d3d59f7	0.046228375
143	0xbc0e7d30	-0.008696839
144	0xbd8b8288	-0.06812006
145	0xbc07a69c	-0.008279469
146	0x3ca6c941	0.020359637
147	0x3d85dfa5	0.065367974
148	0xbd7eb352	-0.062182732
149	0x3d9d11ef	0.07669436
150	0xbda4f7a1	-0.08055044
151	0x3da7f901	0.082017906
152	0xbd02d807	-0.0319443
153	0xbd6ac0c3	-0.05731274
154	0x3c0e4f4a	0.008685896
155	0x3c879114	0.01654867
156	0xbdab1378	-0.08353323
157	0xbd4467b5	-0.047950465
158	0x3db4241d	0.087959506
159	0x3b6e1ce8	0.0036333147
160	0x3dcfcc3b	0.10146376
161	0x3c80459e	0.015658196
162	0x3d9b1e6c	0.07574162
163	0x3da6b5d4	0.0814015
164	0xbc4733ba	-0.012158329
165	0x3e12da83	0.14341168
166	0x3de0de34	0.10979882
167	0xbd7ae57f	-0.06125402
168	0x3d510618	0.051031202
169	0x390fd90c	0.00013718399
170	0x3cc85ed2	0.024459276
171	0x3dbb8d57	0.09157818
172	0xbcf03b1c	-0.02932506
173	0x3c21dfdf	0.009880035
174	0x3de3d807	0.11125188
175	0x3db5db09	0.08879668
176	0xbc50719e	-0.012722401
177	0xbdab6a2f	-0.08369862
178	0xbc440279	-0.01196348
179	0x3dcf1716	0.10111825
180	0xbd530603	-0.051519405
181	0xbc9d8407	-0.019227995
182	0x3d3f6f0f	0.046736773
183	0x3d1285d6	0.035772167
184	0x3dbbce97	0.09170263
185	0x3c870d25	0.01648576
186	0xbcf0a1a1	-0.029373946
187	0x3d56a8d6	0.05240711
188	0x3d80c619	0.06287784
189	0x3ca3e823	0.020008152
190	0x3d816dec	0.06319794
191	0xbbc8da26	-0.006129521
192	0x3d4664d3	0.048435997
193	0xbcf9bdf2	-0.03048608
194	0x3b87349c	0.0041261446
195	0x3da1c1dd	0.078983046
196	0x3d378083	0.044800293
197	0x3d7983f9	0.060916875
198	0x3cb32abb	0.021870961
199	0x3d270007	0.04077151
200	0x3d05aab0	0.032633483
201	0x3d42bee2	0.04754532
202	0x3c06d6eb	0.008229951
203	0x3cf731dc	0.030175142
204	0x3d523863	0.051323306
205	0x3d82f6fd	0.063947655
206	0x3d8c5239	0.0685162
207	0xbd812080	-0.06305027
208	0xbca9e582	-0.02073932
209	0xbd6ed163	-0.058305155
210	0x3c1375bc	0.009000238
211	0x3b27a9e7	0.0025583447
212	0x3db3e8f2	0.08784665
213	0xbd12c227	-0.03582969
214	0xbc2e2645	-0.010629241
215	0x3db88419	0.09009571
216	0xbd8476ed	-0.06467996
217	0x3daec0cf	0.08532869
218	0xbd8b9ef3	-0.068174265
219	0x3d89cd9c	0.0672867
220	0xbd75cadf	-0.060007926
221	0x3d7a9a34	0.061182216
222	0x3c251e65	0.010078047
223	0x3ce47735	0.027888874
224	0x3ca045d2	0.019564543
225	0x3d524cf3	0.051342916
226	0x3d03d5db	0.03218637
227	0x3bb8dbed	0.0056414516
228	0xbcb4cd0e	-0.022070434
229	0xbb986706	-0.004650953
230	0xba80e05d	-0.000983249
231	0xbd4909e8	-0.049081713
232	0x3d9df34b	0.0771242
233	0x3df009e1	0.11720634
234	0x3e06bfd6	0.13159117
235	0x3d704b8e	0.058665805
236	0xbd2efe27	-0.042722847
237	0xbcd1ffd1	-0.025634678
238	0xbd8a774f	-0.067610376
239	0x3dbd594d	0.092455484
240	0x3d9f4e93	0.07778659
241	0x3dc686fa	0.096937135
242	0x3d35c3fb	0.044376355
243	0xbd9e9b96	-0.077445194
244	0x3bf51217	0.007478963
245	0x3cce31ca	0.025170226
246	0x3d55307b	0.052048188
247	0xbd856bc7	-0.065146975
248	0xbd0497bb	-0.032371264
249	0xbc181258	-0.009281717
250	0x3d526d43	0.05137373
251	0x3d903d33	0.07042923
252	0xbbb58b42	-0.0055402825
253	0xbd803ea5	-0.062619485
254	0xbdb77a22	-0.08958842
255	0x3d223bd3	0.039607834

fc_latent.weight f4 [64, 128]
0	0x3d57c0ea	0.05267421
1	0xbdb3c775	-0.08778278
2	0xbb9c53a8	-0.004770715
3	0xbc40c0f2	-0.011764752
4	0xbcb68de0	-0.022284448
5	0xbd115765	-0.035483737
6	0xbdf33534	-0.11875382
7	0xbd1663eb	-0.036716383
8	0xbc80e83c	-0.015735738
9	0xbd91ee64	-0.071255475
10	0x3dc2fbed	0.09520707
11	0xbd83a675	-0.064282335
12	0x3d978198	0.07397765
13	0x3c2d7083	0.010585907
14	0x3d48971c	0.048972234
15	0xbcfe1849	-0.03101744
16	0xbcca6534	-0.02470646
17	0x3ca50cd8	0.020147726
18	0x3c7fadc2	0.015605392
19	0x3ded9712	0.1160108
20	0x3d3e22e3	0.04641999
21	0xbd262d30	-0.040570438
22	0xbd7c974f	-0.061667737
23	0x3d2a4f9f	0.04157984
24	0x3dc29d8b	0.09502705
25	0x3d04cd10	0.032422125
26	0x3d9b27fa	0.07575984
27	0xbcb7681c	-0.02238851
28	0x3c895157	0.016762419
29	0xbd32bd65	-0.043637652
30	0x3e00f691	0.12594058
31	0xbdd41093	-0.10354724
32	0xbd8c126a	-0.0683945
33	0xbc039783	-0.008031729
34	0xbcc7cd84	-0.02438999
35	0xbd331dde	-0.043729655
36	0x3cd17c56	0.025571983
37	0xbb9e1aab	-0.0048249564
38	0x3be04b09	0.0068448824
39	0xba7809bd	-0.00094619003
40	0xbbf1574a	-0.007365142
41	0x3ba77eb7	0.005111541
42	0xbcfbce82	-0.030738119
43	0x3ce5272e	0.027972784
44	0x3bcde094	0.0062828753
45	0xbb2307d2	-0.0024876487
46	0x3af6013a	0.0018768676
47	0x3d939fb2	0.07208194
48	0xbc45d62b	-0.012074987
49	0xbe00a4cf	-0.1256287
50	0x3d153bcd	0.036433984
51	0xbd2c2f80	-0.042037487
52	0xbb722430	-0.003694784
53	0x3dfcef32	0.123503104
54	0x3d81580a	0.0631562
55	0xbd0f9452	-0.03505356
56	0x3cf5603c	0.029953115
57	0xbd2784c4	-0.0408981
58	0xbd497828	-0.049186856
59	0xbacbc413	-0.0015546106
60	0xbd5dc7c6	-0.054145597
61	0x3e0fe091	0.14050509
62	0xbdc1767e	-0.09446429
63	0xbcc4bc5a	-0.024015594
64	0xbdfc580e	-0.123214826
65	0x3d189ab1	0.0372569
66	0x3d06294f	0.03275424
67	0x3dccad4a	0.0999399
68	0x3d340428	0.043949276
69	0xbc841efd	-0.016128058
70	0x3dcab92c	0.098986
71	0x3d103b57	0.03521284
72	0xbe03857a	-0.12843886
73	0x3e0278e5	0.1274143
74	0xbd29684a	-0.041359223
75	0xbe4c0817	-0.19924961
76	0x3da96001	0.082702644
77	0xbd41686c	-0.047218725
78	0xbd8c33be	-0.068458065
79	0x3d653026	0.05595412
80	0x3d3f6042	0.046722658
81	0x3daae21c	0.08343908
82	0x3ce6244e	0.028093483
83	0xbdb40cf5	-0.08791534
84	0x3d754e87	0.059889343
85	0x3d2bf410	0.041980803
86	0x3d8fbd20	0.070184946
87	0xbd82c174	-0.063845545
88	0x3d341c74	0.043972448
89	0x3db1fc13	0.086906575
90	0xbd0c1e5d	-0.034208644
91	0xbcf06f94	-0.02935008
92	0x3c4997b0	0.0123042315
93	0xbda30e52	-0.07961716
94	0x3d1bd906	0.038048767
95	0xbd8356dd	-0.06413052
96	0xbd8c8c1c	-0.06862661
97	0xbc58a4bc	-0.0132228695
98	0xbd3f9770	-0.04677528
99	0xbd9ceb3c	-0.07662055
100	0xbcbe5fc5	-0.023239026
101	0x3cefcf6a	0.029273707
102	0x3cacfa53	0.021115458
103	0x3c3ad77a	0.011403913
104	0xba8b8cde	-0.001064684
105	0x3d869ef5	0.065732874
106	0x3de586a8	0.11207324
107	0x3d983b20	0.07433152
108	0x3cd22883	0.025654083
109	0x3cc6b5ca	0.024256606
110	0xbc94cba0	-0.018163502
111	0x3e1254df	0.14290188
112	0x3d905e0f	0.0704919
113	0x3c2f10d5	0.010685165
114	0xbb44e623	-0.0030044399
115	0x3d94537d	0.072424866
116	0x3da5187d	0.080613114
117	0x3d3f831e	0.046755902
118	0xbce01120	-0.027351916
119	0x3cb47975	0.022030571
120	0x3c63f673	0.013913739
121	0xbd5ad812	-0.053428717
122	0x3d3b4943	0.045724165
123	0x3debf186	0.11520676
124	0xbd226e10	-0.039655745
125	0x3b98a513	0.0046583503
126	0xbd0406f5	-0.032233197
127	0x3da245f7	0.07923501
128	0xbdca4cde	-0.098779425
129	0x3d195b22	0.037440427
130	0xbd8f0ec8	-0.06985241
131	0x3d638b3d	0.05555271
132	0x3c458914	0.012056608
133	0x3cf941d5	0.030426899
134	0x3a1b08f0	0.00059141126
135	0xbbfc65b1	-0.0077025522
136	0x3b25ab46	0.002527909
137	0x3e113fef	0.14184545
138	0xbe2424fc	-0.16029733
139	0xbd46eda2	-0.048566468
140	0xbd6e9de7	-0.058256056
141	0xbd4f1dda	-0.050565578
142	0xbd17c767	-0.0370554
143	0x3df2d6c9	0.11857373
144	0x3bf30eee	0.0074175512
145	0x3caf93e5	0.021432826
146	0xbd83e438	-0.06440014
147	0xbd5853aa	-0.052814163
148	0x3e030b79	0.12797345
149	0x3abf7c13	0.001460912
150	0x3d6a8056	0.057251297
151	0xbe111b5e	-0.14170596
152	0xbdad79e7	-0.08470517
153	0xbd1b02aa	-0.037844338
154	0x3d3ebadc	0.04656492
155	0xbcac9ad7	-0.021069927
156	0xbd007b6a	-0.031367697
157	0x3dfbc40c	0.12293252
158	0x3d8908ef	0.06691157
159	0x3e037db6	0.12840924
160	0x3dfaf45e	0.122536406
161	0x3c8181f2	0.015809033
162	0x3c99fc0a	0.01879694
163	0xbd230eb1	-0.039808933
164	0x3e2144af	0.15748857
165	0xbcfc6eab	-0.03081449
166	0x3c7d1b4c	0.015448403
167	0xbba62bc4	-0.0050711352
168	0xbd0e1a25	-0.034692902
169	0x3c29b5d9	0.010358297
170	0x3b7dcbc4	0.003872619
171	0xbdfe95fb	-0.1243095
172	0xbdc111dc	-0.094272345
173	0x3dcd61c3	0.10028412
174	0x3d0cc4ea	0.03436748
175	0x3c3403d1	0.010987238
176	0x3c55a3a4	0.013039503
177	0x3d3fbf2f	0.046813186
178	0xbc13fcab	-0.009032409
179	0xbd4420cf	-0.04788285
180	0xbdc8eac4	-0.09810403
181	0xbdde1a39	-0.10844845
182	0x3d522df7	0.051313367
183	0xbcef2e21	-0.0291968
184	0x3d886f06	0.06661801
185	0x3dc4e388	0.09613711
186	0xbda14f19	-0.07876415
187	0xbd59a723	-0.05313791
188	0x3d242a40	0.040079355
189	0x3c89a8db	0.01680415
190	0x3c31c135	0.010849287
191	0xbad1893f	-0.0015986337
192	0x3de29645	0.11063818
193	0xbd1e9596	-0.038716875
194	0x3daa7a8c	0.08324155
195	0xbd616327	-0.0550262
196	0x3cb853e2	0.022500936
197	0x3dfd1217	0.12356966
198	0x3bf39fb9	0.007434812
199	0xbd2a16ac	-0.041525528
200	0x3d8ff412	0.070289746
201	0xbd9419b9	-0.07231469
202	0x3da05f1e	0.07830642
203	0xbd60946a	-0.05482904
204	0xbd46677f	-0.048438545
205	0x3dcb08f7	0.09913819
206	0x3df3526d	0.11880956
207	0xbd421322	-0.047381528
208	0xbd9e6e0d	-0.07735834
209	0xbccaac9d	-0.024740512
210	0xbd082c2c	-0.03324525
211	0x3cf86e9d	0.030326182
212	0xbdf1f5d6	-0.118144676
213	0xbe0b21ba	-0.13587084
214	0xbd59eed3	-0.053206276
215	0xbdf0e1cc	-0.11761817
216	0xbc898d27	-0.01679094
217	0xbd8d4ac4	-0.06899026
218	0xbdafeea6	-0.085904405
219	0x3dfc3d41	0.12316371
220	0xbdce793e	-0.10081719
221	0xbcc53d6e	-0.024077144
222	0xbd65b334	-0.056079105
223	0xbdb00dd1	-0.08596385
224	0x3cc774b3	0.024347639
225	0xbda4e9c6	-0.08052401
226	0x3d643465	0.05571403
227	0x3c06e454	0.008233149
228	0x3c943649	0.018092291
229	0x3d768fea	0.06019584
230	0x3d19f10c	0.037583396
231	0xbe277fc7	-0.16357337
232	0x3c8257c9	0.015911
233	0x3daf8965	0.08571128
234	0x3e114c34	0.14189225
235	0xbc63a3f7	-0.013894073
236	0xbd9ecc2a	-0.07753785
237	0xbd0c83d2	-0.0343054
238	0xbd7e19e2	-0.062036403
239	0xbd8acf42	-0.067778125
240	0x3e2756c7	0.16341697
241	0x3dbccc84	0.09218696
242	0x3d8f4c3c	0.069969624
243	0xbdc4cc67	-0.09609299
244	0x3d943c87	0.07238107
245	0x3d524835	0.051338393
246	0x3d42b0ca	0.04753188
247	0xbc875e02	-0.016524319
248	0x3c06efff	0.00823593
249	0xbc495d3e	-0.012290297
250	0xbc6f460d	-0.014604104
251	0xbdd94f4b	-0.10610827
252	0x3e0a9838	0.1353463
253	0x3d1bdd5d	0.038052905
254	0xb966ce9e	-0.0002201148
255	0xbd825524	-0.063638955

fc_latent.bias f4 [64]
0	0xbcfd9a95	-0.0309575
1	0x3dc8425c	0.09778282
2	0xbe24f8ee	-0.16110584
3	0x3e1fda07	0.15610515
4	0xbd7a75f3	-0.06114764
5	0x3e0480d2	0.12939766
6	0xbc796be0	-0.015223473
7	0x3e049674	0.12948018
8	0xbde59e35	-0.11211816
9	0xbde17810	-0.11009228
10	0xbd6c4c56	-0.057689987
11	0xbdb87312	-0.09006323
12	0xbc5720a7	-0.0131303435
13	0x3d087918	0.03331861
14	0x3d7405a6	0.0595757
15	0xbcfbb264	-0.030724712
16	0x3e315d70	0.173208
17	0xbd9277d0	-0.07151759
18	0x3dcacdc4	0.09902528
19	0xbdbb1b96	-0.09136121
20	0x3d878eac	0.066190094
21	0xbdde354a	-0.10850008
22	0xbda8fb39	-0.08251042
23	0x3ca62da5	0.020285437
24	0xbe153b40	-0.14573383
25	0xbc976400	-0.0184803
26	0xbd2507df	-0.04029071
27	0x3c8f150a	0.017466087
28	0xbe2a77b1	-0.16647221
29	0x3de97017	0.113983326
30	0x3d53c9b6	0.05170604
31	0x3e1eac19	0.15495338
32	0xbdf9af5d	-0.12191651
33	0xbdc2d6eb	-0.095136486
34	0x3ddec745	0.108778514
35	0x3dd34123	0.10315158
36	0x3d4ffb72	0.050776906
37	0xbdcf8ee0	-0.10134673
38	0x3de6c94a	0.112688616
39	0x3d889683	0.06669333
40	0x3be20c8b	0.006898468
41	0x3dcc5097	0.09976309
42	0x3e2d73b2	0.16938666
43	0xbdc1b97f	-0.09459209
44	0x3e6a4bd7	0.22880493
45	0xbd72fd56	-0.05932363
46	0xbd6002b4	-0.054690078
47	0xbe186a37	-0.14884268
48	0x3da7e9c0	0.08198881
49	0xbddc7b36	-0.10765688
50	0x3dfacfcd	0.12246666
51	0xbce38f34	-0.027778246
52	0xbdfd518b	-0.12369069
53	0x3b12cc02	0.002239943
54	0xbc25a059	-0.010109031
55	0x3d2f21ee	0.042756967
56	0xbdb096e0	-0.08622527
57	0x3ca04b45	0.019567141
58	0x3d4484d1	0.047978226
59	0x3e18ef3d	0.14935012
60	0xbe0ac174	-0.13550359
61	0xbd311bcd	-0.043239404
62	0x3cc2d830	0.023784727
63	0x3e16ea40	0.14737797

shiptype_emb.weight f4 [17, 8]
0	0x3fbefeb4	1.4921479
1	0x3f0e92a2	0.55692494
2	0x3f32f2bf	0.6990165
3	0x3d860497	0.06543844
4	0x3f3b8aa9	0.73258454
5	0xbda5ffba	-0.081054166
6	0xbef97031	-0.48718408
7	0x3f123bc8	0.5712247
8	0x3fefa8f7	1.8723439
9	0xbd17e7b3	-0.0370862
10	0xbe199396	-0.14997706
11	0xbfc5aa2d	-1.5442559
12	0x3fcb3c3d	1.5877758
13	0xbfaeceaf	-1.3656825
14	0x3e837aa7	0.25679514
15	0x3ebcf5d5	0.36906305
16	0x3ded0539	0.11573262
17	0x40113072	2.2685819
18	0xbf82f47b	-1.023086
19	0x3f8aea71	1.0852796
20	0x3eabafdc	0.33532608
21	0x3f8f1035	1.1176821
22	0xbef64591	-0.4809995
23	0xbf0d9a35	-0.55313426
24	0x3f4ec933	0.80775756
25	0xc01dd12c	-2.4658918
26	0x3f2e2095	0.68018466
27	0x3fb0275a	1.3762009
28	0xbfcd4e4b	-1.6039518
29	0x3dce1461	0.10062481
30	0xbf446669	-0.76718765
31	0x3ff1d684	1.889359
32	0x3e32d3fe	0.17463681
33	0x3e4824b9	0.19545259
34	0xbf5de314	-0.8667462
35	0x3f434a3e	0.7628516
36	0x3dc12b4e	0.09432088
37	0xbf1328a6	-0.574839
38	0xbfa0a4e9	-1.2550327
39	0xbf5c1299	-0.8596588
40	0x3f081422	0.5315572
41	0x3f2de7b6	0.6793169
42	0x3ef250f8	0.473274
43	0x3fcf85c4	1.6212697
44	0xbfa6b0ad	-1.3022667
45	0x3fe355ef	1.77606
46	0xbf0620f4	-0.5239403
47	0x3faffa7a	1.3748314
48	0x3ea220ac	0.31665552
49	0x3f001440	0.500309
50	0x3f96d2b2	1.1783049
51	0x3f5174e4	0.81818986
52	0x3fe537ca	1.790765
53	0xbfd09afb	-1.6297296
54	0xbff9a4af	-1.9503382
55	0xbf0d8b01	-0.5529023
56	0xbd8c7b79	-0.06859488
57	0x3c2d922b	0.010593931
58	0x3d19177f	0.037375923
59	0xbe1ca7bd	-0.15298362
60	0x3f9b8904	1.2151189
61	0xbe81ba5c	-0.25337493
62	0xbe704e3d	-0.23467346
63	0x3f372f1a	0.71556246
64	0xbf44220f	-0.7661447
65	0x3f0d1475	0.5510934
66	0x3f7f155f	0.99641985
67	0x3f32627d	0.6968153
68	0xbe4805f1	-0.19533516
69	0xbe0dfb88	-0.13865483
70	0xbfc701fa	-1.5547478
71	0x3f68c0ea	0.90919363
72	0x3f925936	1.1433475
73	0x3ea3a9de	0.31965536
74	0xbeeea87f	-0.46612927
75	0x3f08e33f	0.5347175
76	0xbf943e18	-1.158145
77	0x3ed113da	0.40835458
78	0xbf13380f	-0.57507414
79	0xbe3585bc	-0.17726797
80	0xbf110e11	-0.5666209
81	0xbf54e561	-0.83162504
82	0xbf5cb2c0	-0.8621025
83	0xbf145b35	-0.5795167
84	0xbd5ee286	-0.05441525
85	0xbfe5996d	-1.7937447
86	0xbfee7ffa	-1.8632805
87	0x400fe37d	2.2482598
88	0x3f1c6d9a	0.6110474
89	0x3e8d525f	0.27601907
90	0x3f0de4e6	0.55427396
91	0xbf8d005f	-1.1015738
92	0xbdf2921f	-0.11844277
93	0x401e3e8a	2.472567
94	0x3f34b187	0.70583385
95	0xbe9e7370	-0.30947447
96	0xbe4d4be0	-0.20048475
97	0x3f8e4d44	1.111733
98	0xbd8aee95	-0.06783787
99	0x3cbc8743	0.023013717
100	0x3e680412	0.22657803
101	0x3f8f2086	1.11818
102	0xbf173afd	-0.59074384
103	0x3e07968a	0.1324102
104	0x3ea12cbb	0.3147944
105	0xbf1b7c51	-0.60736567
106	0xbf9015d1	-1.1256658
107	0x3f28d35d	0.65947515
108	0xbf1c505b	-0.6106011
109	0x3c8804a8	0.016603783
110	0x3da6e543	0.08149197
111	0x3f7e9398	0.9944396
112	0x3dbd301c	0.09237692
113	0x3edc4089	0.43017986
114	0x3f022758	0.50841284
115	0x3ce98d75	0.028509835
116	0x3fc402db	1.5313371
117	0xbcde6193	-0.027146136
118	0xbdfe0fda	-0.12405367
119	0x3f1f6821	0.62268263
120	0xbed8f579	-0.4237478
121	0x3f904797	1.1271847
122	0xbf29dbe7	-0.6635117
123	0x3fccc905	1.5998846
124	0xbf7c29dc	-0.9850137
125	0xbe764af4	-0.2405203
126	0x3e2f77a0	0.17135477
127	0x3f76e9f9	0.96450764
128	0xbec847f4	-0.39117396
129	0xbd3c2f9d	-0.045943845
130	0x3fa83fe9	1.3144504
131	0x3ee763ba	0.45193273
132	0xbe861230	-0.2618575
133	0x3fab01a9	1.3359882
134	0x3e60857e	0.21925923
135	0xbf386f02	-0.72044384

fc_z_st_to_h.weight f4 [128, 72]
0	0x3d902175	0.070376314
1	0xbe0cf080	-0.13763618
2	0x3df3a968	0.11897546
3	0xbdd16203	-0.102237724
4	0xbdaef0b2	-0.08542003
5	0xbe1afb57	-0.15134941
6	0xbd1eeed6	-0.03880199
7	0xbd58d8f2	-0.05294127
8	0x3d986eee	0.07443033
9	0xbd963fd3	-0.07336392
10	0x3af826fd	0.0018932518
11	0x3d8c4d44	0.06850675
12	0xbd887a58	-0.0666396
13	0xbbb86b33	-0.0056280135
14	0xbc6b9643	-0.014379087
15	0xbcc79935	-0.024365047
16	0xbe06de40	-0.13170719
17	0xbd79ebbe	-0.061015837
18	0x3d873222	0.06601359
19	0x3d62f4ec	0.055409357
20	0xbc79fe0e	-0.015258325
21	0x3c887bc8	0.016660586
22	0xbdb60573	-0.08887758
23	0x3d3e942b	0.046528023
24	0x3d997fdf	0.074950926
25	0xbdec40be	-0.11535786
26	0x3d9e8907	0.0774098
27	0xbca71f4a	-0.020400662
28	0x3d95b0e2	0.07309128
29	0xbd6e0894	-0.05811365
30	0x3caca9de	0.021077093
31	0xbcc482c6	-0.023988139
32	0x3e31cf01	0.17364122
33	0xbd308470	-0.043095052
34	0xbba53546	-0.005041751
35	0xbe07937f	-0.13239859
36	0x3da92145	0.08258299
37	0xbda5b894	-0.08091846
38	0x3d7b892c	0.061410114
39	0x3d85b410	0.06528485
40	0xbd83dbf6	-0.064384386
41	0xbdb9e27f	-0.09076404
42	0xbe017359	-0.12641658
43	0x3e069792	0.13143757
44	0xbdd26b95	-0.10274426
45	0x3e06a2cb	0.13148038
46	0xbdf6c40d	-0.120491125
47	0xbd950422	-0.07276179
48	0xbd059c5a	-0.03261981
49	0xbd7dd46f	-0.06197017
50	0xbdf32e95	-0.11874119
51	0xbdfa65e6	-0.12226467
52	0xbd8a1754	-0.06742731
53	0x3d7a8079	0.061157677
54	0xbd16a104	-0.03677465
55	0xbdb7064a	-0.089367464
56	0x3d9601e1	0.07324577
57	0x3dc6812b	0.096926056
58	0xbdbae565	-0.09125785
59	0xbd7c152c	-0.06154363
60	0x3df19743	0.11796429
61	0x3dd825e4	0.10554102
62	0xbd87eaee	-0.06636606
63	0xbd23ef7e	-0.04002332
64	0xbe2d6e93	-0.16936712
65	0x3d06b89f	0.032890912
66	0xbb76e3c8	-0.003767239
67	0xbd8c8cd1	-0.06862796
68	0xbc85413b	-0.016266456
69	0xbd2584ab	-0.040409725
70	0x3e2047b7	0.15652357
71	0xbc919dd2	-0.01777545
72	0xbd497538	-0.049184054
73	0xbce22dd9	-0.027609752
74	0x3c3733a1	0.011181743
75	0xbd844fe7	-0.06460553
76	0x3d9d4017	0.0767824
77	0x3d1e4ac6	0.03864553
78	0xbd1b9c95	-0.037991125
79	0x3d463038	0.04838583
80	0xbda0b755	-0.07847468
81	0x3d0decee	0.034649782
82	0xbd2f56bd	-0.04280733
83	0x3e24c1ef	0.16089605
84	0x3cc50c84	0.02405382
85	0xbdbf8245	-0.09351019
86	0x3dbfa3fa	0.09357448
87	0x3b37fe73	0.0028075248
88	0xbd580bcc	-0.052745625
89	0x3d11feaa	0.035643257
90	0xbe1942a4	-0.14966828
91	0x3db0d508	0.086343825
92	0xbde6959b	-0.11259004
93	0x3dbbf960	0.09178424
94	0xbd593936	-0.053033076
95	0x3cdeac38	0.02718173
96	0x3da758a6	0.08171205
97	0xbdf80cec	-0.1211184
98	0x3cb5601c	0.022140555
99	0x3dc4fafb	0.09618183
100	0x3d040270	0.032228887
101	0x3da1455c	0.078745574
102	0x3e4992cc	0.19684905
103	0xbded8c41	-0.11599017
104	0xbce3068e	-0.027713086
105	0x3d6bb7a6	0.057548188
106	0xbdc1d49d	-0.09464381
107	0xbdcf3a40	-0.10118532
108	0x3c2deda5	0.010615741
109	0x3d915dd2	0.07097973
110	0x3e1187a2	0.14211896
111	0xbdffced9	-0.12490625
112	0x3df9f010	0.122039914
113	0xbc9e4a2e	-0.019322481
114	0xbdc01dcd	-0.09380684
115	0x3bba0ebd	0.0056780265
116	0xbdaa7ca2	-0.08324553
117	0xbbffbd72	-0.007804566
118	0x3e0d08c0	0.13772869
119	0x3db612a3	0.088902734
120	0xbdaf177e	-0.08549403
121	0x3be4d348	0.0069831945
122	0xbcfc9cf8	-0.030836567
123	0xbe18d6fe	-0.14925763
124	0xbc952a40	-0.018208623
125	0x3d58872f	0.052863296
126	0x3e448371	0.19190766
127	0xbc93c35d	-0.018037492
128	0x3b03dd51	0.0020120929
129	0xbe2b10e4	-0.16705662
130	0x3d33f576	0.04393526
131	0xbd95ea6c	-0.07320103
132	0xbbcc4af6	-0.006234522
133	0x3d2e90d5	0.04261859
134	0x3e0f2911	0.1398051
135	0xbe414a23	-0.18875937
136	0xbdbc9905	-0.09208874
137	0xbdc8be8f	-0.09801971
138	0x3b8c4014	0.0042800996
139	0x3d852a63	0.06502225
140	0x3d708a79	0.058725808
141	0x3b959fbb	0.0045661605
142	0xbcc424ad	-0.02394327
143	0xbda0b8d1	-0.07847751
144	0x3de1ed3c	0.11031577
145	0xbdcaaf6c	-0.0989674
146	0xbd14b429	-0.036304627
147	0x3d7c2623	0.061559808
148	0x3d4d04e5	0.050053496
149	0xbde76b0e	-0.11299716
150	0xbd033b2d	-0.032038856
151	0x3ca74ca3	0.020422285
152	0xbc021b9d	-0.007941154
153	0xbd46173b	-0.048361998
154	0x3c95f538	0.018305406
155	0xbd0391bd	-0.03212141
156	0x3dd03661	0.10166622
157	0x3dd2a27b	0.10284897
158	0x3c3088cf	0.010774805
159	0xbd1e3cb9	-0.03863213
160	0xbdc4f0dc	-0.09616253
161	0x3db7878a	0.08961399
162	0xbd956f8b	-0.07296666
163	0xbd7c6814	-0.061622694
164	0xbbd6be94	-0.0065534804
165	0x3df1a3ec	0.11798844
166	0x3d331137	0.04371759
167	0xbd294668	-0.04132691
168	0x3baa6ff9	0.0052013365
169	0x3bf1634a	0.0073665725
170	0x3d9dd1ca	0.0770603
171	0xbdb1a26f	-0.0867356
172	0x3e2ebc0e	0.17063925
173	0xbd721f69	-0.059111986
174	0xbc6d20ad	-0.014473123
175	0xbe2491e9	-0.16071285
176	0xbd1b3ae6	-0.037897967
177	0x3e20389d	0.15646596
178	0xbd8a8b26	-0.06764822
179	0x3d0bb700	0.03411007
180	0xbd8a9f0f	-0.06768619
181	0x3dafd380	0.08585262
182	0xbe168e08	-0.14702618
183	0x3d5a11a7	0.05323949
184	0xbd50c446	-0.05096843
185	0xbd8c5ef8	-0.06854051
186	0x3d055766	0.032554053
187	0x3da98696	0.08277623
188	0x3ca4e8d3	0.02013055
189	0x3e21caba	0.1579999
190	0xbcdf7712	-0.027278457
191	0x3dd96c98	0.10616416
192	0x3d776063	0.060394656
193	0xbd318554	-0.043340042
194	0x3d800e1b	0.062526904
195	0x3d7ed525	0.06221499
196	0x3dfbb088	0.1228953
197	0x3d9afc48	0.0756765
198	0xbc1dc36b	-0.009629111
199	0xbdee95d0	-0.11649668
200	0x3cae8c87	0.021307243
201	0xbcdbf835	-0.026851753
202	0x3da34c86	0.0797358
203	0x3c9ea18f	0.019364147
204	0x3dd2e4ef	0.10297572
205	0xbc357eb0	-0.011077568
206	0x3d70bded	0.058774877
207	0xbe27a081	-0.16369821
208	0xbd8e23a0	-0.06940389
209	0xbd66a655	-0.05631097
210	0xbdaf7aeb	-0.085683666
211	0xbd8fa877	-0.07014554
212	0xbe34e7c9	-0.17666544
213	0xbcb991a4	-0.022652455
214	0x3e2eb89c	0.1706261
215	0x3df29dd3	0.11846509
216	0xbd7614e5	-0.06007852
217	0x3e2c3bbb	0.1681966
218	0xbc276644	-0.010217253
219	0x3dc9cf94	0.098540455
220	0xbd4a48b1	-0.04938573
221	0x3dac6683	0.0841799
222	0xbcad4e38	-0.021155462
223	0x3e1b701e	0.15179488
224	0xbdb89b83	-0.090140365
225	0xbde0dba2	-0.10979392
226	0x3db751f6	0.0895118
227	0x3c158255	0.009125312
228	0xbc4eb929	-0.012617388
229	0x3d2059e4	0.039148226
230	0x3d1ca094	0.038239077
231	0x3ca72b3a	0.020406354
232	0xbce31906	-0.027721893
233	0xbe0ef910	-0.13962197
234	0xbd596f9c	-0.053084955
235	0x3e1320e8	0.14368021
236	0x3cfb1c87	0.030653251
237	0x3b40a38e	0.0029394361
238	0xbc6aeefe	-0.014339207
239	0x3d36ec46	0.04465892
240	0xbe032b31	-0.12809445
241	0x3dc23a11	0.094837315
242	0x3d7a13e8	0.06105414
243	0xbb942339	-0.0045208004
244	0xbde349d1	-0.11098064
245	0x3d77960b	0.060445827
246	0x3d2c9f77	0.042144265
247	0x3e13b37a	0.14423934
248	0x3ceaf077	0.028679116
249	0xbdc3bc48	-0.09557396
250	0xbd6eeafe	-0.058329575
251	0x3882f3ba	6.244281e-05
252	0x3d7bea0b	0.061502498
253	0xbe012224	-0.1261068
254	0x3d93ca52	0.07216324
255	0x3e3d00df	0.18457364

fc_z_st_to_h.bias f4 [128]
0	0x3c934a2e	0.017979708
1	0xbd427e59	-0.047483776
2	0xbde685a2	-0.11255957
3	0xbcbef101	-0.023308279
4	0x3d814880	0.063126564
5	0x3cedd7db	0.029033592
6	0xbd4aa792	-0.049476214
7	0x3e0a5fa2	0.13513044
8	0x3dcf38c1	0.10118247
9	0xbe233f2d	-0.15942068
10	0xbd79270a	-0.060828246
11	0x3c5ae309	0.013359793
12	0x3df8cc9a	0.121484
13	0xbe1f981f	-0.15585373
14	0xbe3a2f7f	-0.18182181
15	0xbdb967ab	-0.09052976
16	0x3cc0b74c	0.023524903
17	0xbc080f50	-0.008304432
18	0x3ccaa4d9	0.024736809
19	0xbdb8371d	-0.08994887
20	0xbdd0f954	-0.102038056
21	0x3d99cfc8	0.07510334
22	0x3d96ee83	0.07369711
23	0x3b196196	0.0023404113
24	0xbc3da7d6	-0.01157566
25	0x3cac1d5c	0.021010093
26	0xbdf0ab68	-0.11751443
27	0x3dc1c0b9	0.09460587
28	0xbb8b58d9	-0.004252535
29	0x3e0d226a	0.13782659
30	0xbd180975	-0.037118394
31	0x3c504a5c	0.012713041
32	0xbdfb05e9	-0.12256987
33	0xbdf844f4	-0.12122527
34	0x3d56da6e	0.052454405
35	0xbc77aedb	-0.015117372
36	0x3d4f4876	0.050606214
37	0x3dcdd418	0.10050219
38	0x3c0e2fcb	0.008678387
39	0xbddceb04	-0.10787013
40	0x3e1352fb	0.14387123
41	0x3c9854b0	0.01859507
42	0xbdbecdef	-0.093166225
43	0x3e1929b1	0.1495731
44	0xbd9858d0	-0.07438815
45	0x3d9aa16a	0.075503185
46	0x3df32735	0.118727125
47	0xbd3e5541	-0.046468023
48	0x3da3a1be	0.07989834
49	0x3b457a3a	0.0030132667
50	0x3bf64b1a	0.007516277
51	0x3be9cc94	0.0071349833
52	0x3d5e3487	0.054249313
53	0xbdd9e785	-0.10639862
54	0x3e6786e3	0.22610049
55	0x3c80989a	0.015697766
56	0x3dc26b22	0.0949309
57	0x3dc9714e	0.09836064
58	0x3dfd52bb	0.12369295
59	0xbbda5798	-0.006663274
60	0xbc4faf7e	-0.012676118
61	0xbd179432	-0.037006564
62	0xbdb6623a	-0.08905454
63	0x3d4cce3f	0.05000138
64	0xbd2b94d2	-0.041889973
65	0x3d36f5f2	0.044668145
66	0xbbaaf513	-0.0052172034
67	0x3da1ffe5	0.07910136
68	0x3cd97f8b	0.026550075
69	0x3e0a13fa	0.13484183
70	0x3d0cc6f2	0.034369417
71	0xbd36176e	-0.044455938
72	0xbd5927b7	-0.05301639
73	0xbdba1b92	-0.0908729
74	0x3d3669ef	0.04453462
75	0x3d43984a	0.047752656
76	0x3d2d0e5f	0.042250033
77	0xb9ec9bec	-0.000451296
78	0x3ccd477e	0.025058504
79	0x3e10035c	0.14063781
80	0xbd691777	-0.056907143
81	0x3ae2826c	0.00172813
82	0x3d0a88f1	0.033822004
83	0x3cfa9705	0.03058959
84	0x3e2eb5c7	0.1706153
85	0x3d30d853	0.043175053
86	0xbd261e7a	-0.04055641
87	0xbc017fdc	-0.007904019
88	0x3dbc514d	0.091951944
89	0x3d671ea8	0.05642572
90	0x3e1aa359	0.15101375
91	0xbcd43d41	-0.025908114
92	0x3e272db7	0.16326033
93	0x3da61f13	0.08111396
94	0xbcd269b2	-0.025685165
95	0xbd5081aa	-0.050904907
96	0x3d97f0ab	0.07418951
97	0x3dfb2847	0.12263542
98	0xbdd23274	-0.102635294
99	0x3e251e03	0.1612473
100	0x3c9b5506	0.01896144
101	0x3de986cf	0.11402666
102	0x3e16f563	0.14742045
103	0xbdb0fbac	-0.086417526
104	0xbc4f6b6c	-0.012659889
105	0x3d3987d4	0.04529555
106	0xbe398d26	-0.1812025
107	0x3b962cd9	0.004582983
108	0x3d04dcb3	0.032437038
109	0xbd9a5e16	-0.07537477
110	0xbe2c994c	-0.16855353
111	0x3dc8a6c4	0.09797433
112	0x3d39d92d	0.04537313
113	0x3dfa199e	0.12211917
114	0x3d635b9b	0.055507284
115	0xbbc6b8dd	-0.006064518
116	0x3d10d339	0.035357688
117	0x3dd3afe0	0.1033628
118	0xbcdb06ce	-0.026736643
119	0xbbebe71f	-0.0071991826
120	0x3c8d1bf8	0.01722525
121	0xbc953fce	-0.018218901
122	0x3dee4a4a	0.11635263
123	0x3e04d8b5	0.12973292
124	0xbdbd6f70	-0.09249771
125	0x3e32c55c	0.17458099
126	0xbc5ccfb7	-0.013477257
127	0xbcb26c44	-0.02178014
