models/dark_vessel_model.pth (torch, 195926 bytes, 17 tensors)

encoder.weight_ih_l0 f4 [256, 17]
-0.031985227 0.11926526 0.1113238 -0.012280745 -0.07988403 0.019662486 0.06762556 -0.15816887
0.033847906 -0.013670449 -0.047509164 -0.08522797 -0.00841783 -0.021347737 0.0059910435 -0.46836418
-0.15411074 0.12828514 -0.03368536 0.058088284 0.07356312 -0.1633656 0.013291473 -0.10382384
-0.15824164 -0.042451 -0.01119735 -0.04785887 0.09907334 0.07773496 -0.07733556 0.06066268
-0.34270805 -0.1414625 0.009517807 -0.100483276 0.050396647 -0.02920704 0.1101195 0.03991599
-0.07435529 -0.15451208 0.10387465 0.10214924 -0.006187068 0.022853289 -0.093340635 -0.04735182
-0.064126305 -0.30883434 -0.19862878 0.13811998 -0.039640434 0.047902197 -0.0935351 -0.036281083
0.0077745216 0.043396704 -0.13609035 -0.043758295 0.07679462 -0.10978022 -0.053783868 0.121866405
-0.20058711 -0.05317966 -0.4433464 -0.19048738 -0.018302007 0.048713755 0.022120608 -0.12075175
-0.06893973 0.040032625 -0.07894438 -0.2509743 0.02744543 -0.00041912697 -0.12387681 -0.018395027
0.06035021 -0.016751643 -0.13435157 -0.45333564 -0.07057977 -0.0008567903 0.02607298 0.07220218
0.068512596 -0.08379816 0.053858206 -0.103592716 -0.24984509 -0.016370473 0.022220453 0.07673119
0.050085124 0.09260647 -0.10930991 -0.12682194 -0.51564544 -0.23694344 0.07407034 0.06514799
0.10382585 -0.072320916 -0.10540723 -0.16310379 -0.16412312 -0.13029654 0.052001942 0.08904505
0.0029914824 -0.011748238 -0.097253665 0.053702272 -0.15334542 -0.37805665 -0.21992067 -0.08825594
-0.029253593 -0.023417205 -0.012215953 -0.009817789 -0.13169175 -0.17978604 -0.06938079 -0.028299125
0.05575003 0.12686859 -0.062059935 -0.003451241 -0.02721109 -0.019966008 -0.3109068 0.011943039
0.09826795 0.08262752 0.15519656 0.003089585 -0.19183604 -0.13180682 0.041142818 -0.19449127
0.046146482 0.06424817 -0.09281232 0.020502852 -0.017608045 -0.10218024 0.030038752 -0.4202882
-0.27047566 0.02411227 0.11649686 0.06997217 0.0517564 -0.012883758 0.02441535 0.12156201
-0.06111652 -0.05607054 0.041140255 0.005715764 0.07248587 0.014368417 0.013556004 -0.10599454
-0.4405318 -0.27812186 0.09061018 0.11872557 0.06387133 -0.017253168 -0.095915034 0.09525997
-0.16836146 -0.2065482 -0.002545065 -0.11037089 -0.06865609 -0.13797608 0.097559065 -0.014728424
-0.009523183 -0.402457 -0.30549636 0.12343244 -0.016576357 0.16699068 -0.10684232 -0.10938206
-0.12140712 0.0038201779 -0.09021634 0.026556665 0.03894935 -0.107678704 0.043479912 -0.01505249
-0.023982955 -0.047035173 -0.36611074 -0.17574239 0.0631779 0.06858202 0.111229904 0.025990153
-0.13821626 -0.06279279 -0.002002747 -0.14599466 0.046446737 0.11537368 0.09443598 0.06307045
-0.09542533 0.052771695 0.051228005 -0.36761174 -0.21156861 0.0102579435 -0.05427174 0.11411471
-0.033909526 -0.02422246 -0.107059166 0.0675049 -0.17238873 -0.07544806 0.10206581 0.09213635
0.012516717 -0.09197758 0.054569814 -0.06473197 -0.45561534 -0.3126091 -0.06576768 -0.074023694
0.0969472 -0.22789256 -0.11288844 0.049724877 -0.15858896 -0.13313793 0.08032023 0.09671888
0.03895325 -4.266732e-05 0.09485273 -0.12027184 0.07631406 -0.5193326 -0.28455272 0.037087455
00000000: f102 03bd 5841 f43d bcfd e33d 2e35 49bc
00000010: 3d9a a3bd 3913 a13c 457f 8a3d 05f7 21be
00000020: 1aa4 0a3d 05fa 5fbc f898 42bd 008c aebd
00000030: f0ea 09bc 73e1 aebc 8450 c43b 6ecd efbe
00000040: 35cf 1dbe 2e5d 033e a9f9 09bd fbed 6d3d
00000050: 43a8 963d 5049 27be 7ac4 593c 98a1 d4bd
00000060: 190a 22be 1ae1 2dbd 1775 37bc aa07 44bd
00000070: f7e6 ca3d 8233 9f3d 1b62 9ebd 6e79 783d
00000080: 6e77 afbe 8cdb 10be 93f0 1b3c 2dca cdbd
00000090: b76c 4e3d 9a43 efbc 5586 e13d f37e 233d
000000a0: 9647 98bd 6a38 1ebe 3cbc d43d 9f33 d13d
000000b0: e3bc cabb d236 bb3c 6029 bfbd fbf3 41bd
000000c0: a754 83bd 891f 9ebe 5865 4bbe 536f 0d3e
000000d0: 025e 22bd 1835 443d 558f bfbd 799b 14bd
000000e0: 6ac1 fe3b bec0 313d 455b 0bbe e63b 33bd
000000f0: 7f46 9d3d 74d4 e0bd 794c 5cbd 1895 f93d
00000100: b566 4dbe ead2 59bd 4dfe e2be 200f 43be
00000110: 17ee 95bc 1388 473d 4736 b53c b24c f7bd
00000120: 4630 8dbd 40f9 233d 97ad a1bd b47f 80be
00000130: 3dd5 e03c 45be dbb9 20b3 fdbd 2bb1 96bc
00000140: c831 773d be3a 89bc 7593 09be 9c1b e8be
00000150: 208c 90bd 399a 60ba 0197 d53c bdde 933d
00000160: 5550 8c3d 5f9e abbd 6c9a 5c3d 6b28 d4bd
00000170: 64d7 7fbe 5f1b 86bc ab07 b63c 3e25 9d3d
00000180: 0f26 4d3d 76a8 bd3d e0dd dfbd 9cdd 01be
00000190: 5701 04bf 4da1 72be 31b2 973d 4f6c 853d
000001a0: a6a2 d43d fd1c 94bd bfdf d7bd ae04 27be
000001b0: e40f 28be 756c 05be fdff 543d 405d b63d
000001c0: bf0c 443b ae7b 40bc ee2c c7bd eaf6 5b3d
000001d0: 9506 1dbe a490 c1be e232 61be 88bf b4bd
000001e0: 3ba5 efbc 70d5 bfbc 6c25 48bc cbda 20bc
000001f0: 34da 06be d519 38be 8417 8ebd 91d3 e7bc
00000200: 255a 643d d7e9 013e 8f32 7ebd 372e 62bb
00000210: cbe9 debc c18f a3bc 2d2f 9fbe bcac 433c
00000220: b540 c93d 9e38 a93d d9eb 1e3e a37a 4a3b
00000230: ab70 44be 5ef8 06be 5f85 283d b828 47be
00000240: 1804 3d3d 8b94 833d 6314 bebd 99f5 a73c
00000250: bf3e 90bc e043 d1bd d413 f63c 0430 d7be
00000260: c97b 8abe 1887 c53c e895 ee3d 924d 8f3d
00000270: 85fe 533d 6616 53bc b302 c83c 81f5 f83d
00000280: 5155 7abd 39aa 65bd af82 283d 4e4b bb3b
00000290: 7973 943d 8269 6b3c 001a 5e3c aa13 d9bd
000002a0: 628d e1be fd65 8ebe d491 b93d 6426 f33d
000002b0: f9ce 823d 8456 8dbc 1a6f c4bd a917 c33d
000002c0: f266 2cbe 5f81 53be 1bcb 26bb 220a e2bd
000002d0: 909b 8cbd 9a49 0dbe 0ccd c73d 7d4f 71bc
000002e0: 2007 1cbc d80e cebe 056a 9cbe 26ca fc3d
000002f0: 24cb 87bc 9bff 2a3e 25d0 dabd b403 e0bd
00000300: 4ca4 f8bd f35b 7a3b 58c3 b8bd 5d8d d93c
00000310: 5b89 1f3d a786 dcbd fe17 323d b89e 76bc
00000320: e777 c4bc f4a7 40bd de72 bbbe d0f5 33be
00000330: 6a63 813d bb74 8c3d 81cc e33d 4de9 d43c
00000340: 9088 0dbe 8299 80bd 8540 03bb a07f 15be
00000350: ef3e 3e3d 0949 ec3d a767 c13d 152b 813d
00000360: 5b6e c3bd 2227 583d 75d4 513d 9b37 bcbe
00000370: 71a5 58be ef10 283c 0b4c 5ebd f9b4 e93d
00000380: b7e4 0abd 2e6e c6bc d641 dbbd 0240 8a3d
00000390: ac86 30be 8384 9abd e107 d13d fcb1 bc3d
000003a0: eb12 4d3c be5e bcbd 9984 5f3d 3292 84bd
000003b0: 6a46 e9be 4d0e a0be 35b1 86bd bc99 97bd
000003c0: 418c c63d ab5c 69be 0e32 e7bd 50ac 4b3d
000003d0: 2565 22be 4f55 08be ef7e a43d 8c14 c63d
000003e0: 718d 1f3d b0f5 32b8 2642 c23d 1551 f6bd
000003f0: 8c4a 9c3d fbf2 04bf e5b0 91be 04e9 173d

encoder.weight_hh_l0 f4 [256, 64]
-0.081243955 0.08153788 -0.016250527 -0.07856025 -0.16131854 0.10312364 0.06492162 -0.16128169
0.073882915 -0.12889555 0.09562764 0.087108724 -7.6831515e-05 -0.0555303 -0.08081865 0.046092056
-0.15228401 -0.0037169436 -0.023011036 0.038041428 0.054340165 0.004432662 0.11327155 -0.12370257
0.026878322 0.06931149 0.087979406 0.07712741 0.01092514 -0.12677959 -0.020113496 -0.067281246
0.048749246 0.11530713 -0.03031583 -0.1478546 -0.12849927 -0.02734598 0.023484822 -0.05040323
-0.03271453 0.09544033 -0.087186866 -0.113115065 -0.08506334 0.093286514 -0.09687739 0.01784648
0.09677901 0.008686612 0.08820537 -0.06403963 -0.14241774 0.021694306 0.0036519477 -0.05751708
-0.09127351 -0.098121814 0.09833534 0.120817475 0.19165249 -0.08322915 0.124122754 0.05915133
-0.020557893 0.036397737 -0.0023639319 -0.016304329 -0.05730544 0.15883313 0.0792129 0.029688431
0.009740841 -0.10256787 -0.12799971 -0.031258684 -0.0718278 -0.09478859 0.110457264 0.08851091
-0.056171615 0.10435586 0.04967278 -0.006463757 0.12111739 -0.09229015 0.12848046 0.013385215
0.103844784 -0.106700726 0.117876954 -0.035112556 -0.045489747 -0.051379234 0.037060473 -0.008495013
-0.024146663 0.08591313 0.017353786 -0.08611207 0.092880405 -0.023033597 0.07752887 0.06925181
-0.09464478 -0.0602157 0.06550748 0.026083518 0.008369053 0.07990952 -0.10945133 0.074939795
0.027431522 -0.037296828 -0.020392265 0.1054568 0.05176367 0.060487527 0.072325714 -0.004881662
0.00080665766 -0.009714462 -0.017393015 0.115940705 0.07625007 0.08939546 0.08606749 -0.04721256
-0.04585709 0.011468747 -0.027675057 0.0054929038 -0.03167408 -0.05460902 0.18095642 -0.17949297
-0.08920825 0.018173492 -0.102081254 -0.0032857978 -0.077594385 -0.061875436 -0.047187574 -0.010924036
-0.14700489 0.053577267 0.03687004 -0.08366628 0.022552975 -0.09485107 -0.02335186 -0.048839096
-0.10417826 -0.12277586 -0.014635029 0.072322324 0.100560844 0.039398797 -0.09996794 -0.098645754
0.016937464 0.11104992 -0.029678892 0.035284493 -0.0732695 0.027438711 0.09046024 -0.051908888
-0.06958912 0.11211996 -0.12706047 0.07552421 -0.036982715 -0.078025825 -0.13712014 0.034793276
-0.095677055 0.055389468 -0.027498325 -0.009487944 0.069937706 0.10281288 -0.027207445 -0.091446355
-0.13126805 0.003506005 -0.03879815 -0.095986605 0.19162014 0.08452922 0.014101247 -0.085765176
0.0315958 -0.05929549 0.093158476 0.07604343 0.054573357 0.060018703 0.08538221 -0.04880803
-0.097497895 -0.04809754 -0.06851294 -0.024473153 0.043688636 0.08030603 0.079919614 -0.011586426
-0.011993654 -0.00702044 0.049918175 -0.0021552213 -0.010114279 -0.06284187 0.027944218 0.015824527
-0.03744878 -0.022620229 0.07907487 0.053537022 0.06434652 -0.0070136837 0.08097804 0.020124387
0.022557635 -0.08326377 -0.0237764 0.068774216 0.013533215 -0.08682934 -0.049608357 0.0959005
-0.07221717 0.0019173044 0.05403848 -0.100170575 0.009170874 -0.07454354 -0.09926061 -0.0080029005
-0.10809713 0.11363923 0.05726337 -0.14351965 0.049109433 -0.06755283 0.039110832 0.09034189
0.09551753 0.091225155 -0.09427358 -0.039167006 0.24763489 -0.0726577 -0.054176934 -0.019040832
00000000: 3b63 a6bd 55fd a63d d31f 85bc 32e4 a0bd
00000010: b030 25be 7d32 d33d a0f5 843d 0727 25be
00000020: ed4f 973d 32fd 03be 6dd8 c33d 0f66 b23d
00000030: 9b20 a1b8 bd73 63bd 4084 a5bd 06cb 3c3d
00000040: 57f0 1bbe f797 73bb a481 bcbc 54d1 1b3d
00000050: cb93 5e3d dd3f 913b eafa e73d c657 fdbd
00000060: ed2f dc3c 2ff3 8d3d 8c2e b43d faf4 9d3d
00000070: 5cff 323c 82d2 01be 0fc5 a4bc c0ca 89bd
00000080: 4aad 473d 2526 ec3d e758 f8bc 3267 17be
00000090: 5095 03be ad04 e0bc 3e63 c03c 9e73 4ebd
000000a0: acff 05bd 3876 c33d 078f b2bd dfa8 e7bd
000000b0: b035 aebd 000d bf3d a767 c6bd c832 923c
000000c0: 1334 c63d 4b52 0e3c 04a5 b43d 3627 83bd
000000d0: f5d5 11be 42b8 b13c 8455 6f3b 0897 6bbd
000000e0: 9bed babd 17f4 c8bd 0a64 c93d 276f f73d
000000f0: 8d40 443e 0b74 aabd 1234 fe3d aa48 723d
00000100: 0769 a8bc cb15 153d 32ec 1abb a890 85bc
00000110: 1cb9 6abd 27a5 223e 5f3a a23d 2735 f33c
00000120: 0c98 1f3c 1a0f d2bd 5b12 03be 1b09 00bd
00000130: 741a 93bd 8520 c2bd 6b37 e23d 3545 b53d
00000140: 3514 66bd 86b8 d53d af75 4b3d eccd d3bb
00000150: 650c f83d 9e02 bdbd 6290 033e a94d 5b3c
00000160: 93ac d43d e985 dabd 7969 f13d 2fd2 0fbd
00000170: 7553 3abd 0873 52bd b9cc 173d ab2e 0bbc
00000180: 39cf c5bc 39f3 af3d 8729 8e3c 865b b0bd
00000190: 1538 be3d f4b0 bcbc 75c7 9e3d e5d3 8d3d
000001a0: 1fd5 c1bd bda4 76bd c928 863d 1aad d53c
000001b0: 5a1e 093c 9aa7 a33d 0528 e0bd 097a 993d
000001c0: 12b8 e03c 8fc4 18bd ae0d a7bc bcf9 d73d
000001d0: 2406 543d c5c1 773d 811f 943d 59f6 9fbb
000001e0: e175 533a 6829 1fbc cc7b 8ebc 5272 ed3d
000001f0: ff28 9c3d f814 b73d 2744 b03d f561 41bd
00000200: a5d4 3bbd 69e7 3b3c cdb6 e2bc d1fd b33b
00000210: aebc 01bd b5ad 5fbd a44c 393e 01cd 37be
00000220: d1b2 b6bd 93e0 943c fa0f d1bd 8a56 57bb
00000230: cee9 9ebd 1971 7dbd c247 41bd bafa 32bc
00000240: 7388 16be d673 5b3d 0a05 173d 3a59 abbd
00000250: 04c1 b83c 4741 c2bd 664c bfbc 810b 48bd
00000260: 695b d5bd e971 fbbd c3c7 6fbc ba1d 943d
00000270: d8f2 cd3d a260 213d febb ccbd c906 cabd
00000280: 70c0 8a3c 246e e33d 2621 f3bc 7986 103d
00000290: 520e 96bd 26c7 e03c 3843 b93d 6a9e 54bd
000002a0: be84 8ebd 269f e53d 241c 02be 70ac 9a3d
000002b0: 307b 17bd 01cc 9fbd 3969 0cbe 6583 0e3d
000002c0: 55f2 c3bd 11e0 623d 2b44 e1bc 5273 1bbc
000002d0: 803b 8f3d 8f8f d23d 26e2 debc 3a48 bbbd
000002e0: 226b 06be 01c5 653b cfea 1ebd a094 c4bd
000002f0: 1238 443e a81d ad3d eb08 673c a7a5 afbd
00000300: 996a 013d d4df 72bd dfc9 be3d a8bc 9b3d
00000310: 5088 5f3d 2cd6 753d dedc ae3d eeea 47bd
00000320: faac c7bd ed01 45bd 8350 8cbd ec7b c8bc
00000330: dbf2 323d 7d77 a43d e5ac a33d fed4 3dbc
00000340: 0881 44bc b80b e6bb 0077 4c3d 9d3e 0dbb
00000350: 5cb6 25bc 3db3 80bd 46eb e43c 70a2 813c
00000360: e463 19bd 0f4e b9bc 01f2 a13d a349 5b3d
00000370: 1cc8 833d 0bd3 e5bb d1d7 a53d e6db a43c
00000380: caca b83c 3286 aabd bac6 c2bc 7fd9 8c3d
00000390: 6bba 5d3c 95d3 b1bd 2232 4bbd 7b67 c43d
000003a0: 98e6 93bd 0f4e fb3a 7457 5d3d 3b26 cdbd
000003b0: 6f41 163c 49aa 98bd 2649 cbbd 991e 03bc
000003c0: 0762 ddbd afbb e83d ff8c 6a3d d1f6 12be
000003d0: f926 493d 2359 8abd ae32 203d 2b05 b93d
000003e0: b29e c33d 41d4 ba3d 8212 c1bd 956d 20bd
000003f0: 0094 7d3e 8fcd 94bd a2e8 5dbd 85fb 9bbc

encoder.bias_ih_l0 f4 [256]
-0.31676573 -0.487072 -0.4499285 -0.32065344 -0.5144874 -0.35453624 -0.43916845 -0.34751606
-0.5875816 -0.59067637 -0.39811584 -0.4440437 -0.36209634 -0.6233079 -0.40200198 -0.5067984
-0.39999834 -0.47252977 -0.36179227 -0.4175961 -0.5683168 -0.27215114 -0.44981456 -0.4107069
-0.41925216 -0.49049938 -0.3581556 -0.4113852 -0.34708184 -0.51496917 -0.45097947 -0.37747303
-0.41140065 -0.5405177 -0.3630139 -0.35349238 -0.40832597 -0.48762676 -0.4243942 -0.5176145
-0.47956648 -0.34030458 -0.5608404 -0.44717094 -0.4381236 -0.49677843 -0.6184573 -0.6288736
-0.4360137 -0.447257 -0.40175995 -0.33747977 -0.55504805 -0.35776824 -0.3828369 -0.447671
-0.39921874 -0.44715795 -0.434495 -0.53342223 -0.28595522 -0.5499088 -0.41053227 -0.41421166
-0.35387158 -0.3466049 -0.3070644 -0.30840716 -0.39806214 -0.32233176 -0.36600435 -0.35875645
-0.2468478 -0.4519752 -0.3885058 -0.23147838 -0.47580314 -0.48473155 -0.49859226 -0.38512406
-0.32654494 -0.43092394 -0.3013401 -0.31536916 -0.22853 -0.36552656 -0.47389537 -0.5003833
-0.24220708 -0.43132693 -0.297691 -0.28581834 -0.41661763 -0.32455674 -0.2997608 -0.33760282
-0.39721578 -0.33907697 -0.31522545 -0.43939486 -0.24737778 -0.42603186 -0.27500105 -0.2508644
-0.46291438 -0.4520305 -0.47196406 -0.39483058 -0.37745488 -0.3685653 -0.32173607 -0.41995865
-0.29163274 -0.38273656 -0.49771908 -0.43680677 -0.2667471 -0.3389632 -0.46527958 -0.3407068
-0.3819527 -0.40589064 -0.3119683 -0.42722082 -0.28001618 -0.2920499 -0.47103608 -0.33126524
-0.12061821 -0.06994919 -0.0016466103 -0.12049363 -0.05326886 -0.0074198507 -0.081681386 0.12753649
0.029896146 -0.029830657 -0.09116395 0.12755819 -0.018010998 -0.0008918833 -0.03064827 -0.029932318
-0.004678136 -0.011040853 0.06865116 0.05614245 -0.009856902 -0.07417455 0.054274537 0.02813883
-3.5606736e-05 -0.033340573 -0.0020606888 0.021746697 -0.08311196 0.1197959 -0.07764911 0.0053179003
0.019449672 0.03691293 0.06647803 -0.05204617 0.019953148 0.15960324 0.013019139 0.056202345
-0.011435578 0.026360419 0.07005603 -0.048351794 -0.02298847 -0.041339274 0.05760194 -0.0029229282
0.030233748 0.04317274 -0.067842014 0.041694775 -0.009733563 0.055766743 0.09361421 0.010350877
-0.07097993 -0.05095094 0.06587218 0.036336668 -0.11546066 -0.013334563 0.0034593232 -0.0033837815
-0.3454166 -0.33738452 -0.5426954 -0.29013002 -0.4154162 -0.37204522 -0.39468098 -0.42901745
-0.42234576 -0.4236099 -0.5151685 -0.42438775 -0.49943373 -0.3885077 -0.40774265 -0.60625225
-0.4785844 -0.40474522 -0.33738428 -0.5267035 -0.5327985 -0.48155093 -0.43512145 -0.5283562
-0.42163712 -0.55394053 -0.38374522 -0.42931625 -0.45366636 -0.34659952 -0.4094843 -0.44723347
-0.3558611 -0.5722446 -0.50121534 -0.35312214 -0.40841708 -0.32499433 -0.30542946 -0.27710027
-0.3122692 -0.43489206 -0.46416146 -0.30819687 -0.48263925 -0.3391785 -0.4524767 -0.3706498
-0.52394074 -0.45521057 -0.43539733 -0.5643515 -0.38738224 -0.37649828 -0.39067948 -0.38558677
-0.35162628 -0.5627914 -0.32754228 -0.48155063 -0.3236937 -0.5342255 -0.4345849 -0.44220778
00000000: 1e2f a2be 8061 f9be 075d e6be b02c a4be
00000010: 72b5 03bf c685 b5be b0da e0be a0ed b1be
00000020: bf6b 16bf 9136 17bf d7d5 cbbe b259 e3be
00000030: b164 b9be 1b91 1fbf 34d3 cdbe 8abd 01bf
00000040: 95cc ccbe 6cef f1be d63c b9be 28cf d5be
00000050: 367d 11bf 6557 8bbe 184e e6be 2d48 d2be
00000060: 38a8 d6be bc22 fbbe 2c60 b7be 15a1 d2be
00000070: b6b4 b1be 05d5 03bf c8e6 e6be 2544 c1be
00000080: 1ba3 d2be 5e5f 0abf f5dc b9be f4fc b4be
00000090: 1a10 d1be 37aa f9be 324a d9be 6282 04bf
000000a0: bd89 f5be 673c aebe 3d93 0fbf 97f3 e4be
000000b0: bd51 e0be be59 febe 3853 1ebf dcfd 20bf
000000c0: 303d dfbe dffe e4be 7bb3 cdbe 26ca acbe
000000d0: a117 0ebf 662d b7be 3303 c4be 2235 e5be
000000e0: 6666 ccbe e3f1 e4be 2176 debe 5c8e 08bf
000000f0: b968 92be d3c6 0cbf 4931 d2be 8d13 d4be
00000100: a82e b5be 3376 b1be 8c37 9dbe 8be7 9dbe
00000110: cdce cbbe ab08 a5be ec64 bbbe edae b7be
00000120: abc5 7cbe 4b69 e7be 3bea c6be ab08 6dbe
00000130: 789c f3be bc2e f8be 7c47 ffbe fb2e c5be
00000140: e630 a7be 10a2 dcbe 4049 9abe 1178 a1be
00000150: c503 6abe 4c26 bbbe 6aa2 f2be 1f19 00bf
00000160: 2205 78be e2d6 dcbe f46a 98be c856 92be
00000170: e84e d5be 4d2c a6be 3f7a 99be 47da acbe
00000180: de5f cbbe 7f9b adbe 3b65 a1be 5df8 e0be
00000190: 9a50 7dbe d920 dabe f0cc 8cbe 4c71 80be
000001a0: 1d03 edbe 8b70 e7be 46a5 f1be 3c27 cabe
000001b0: c441 c1be 97b4 bcbe 97ba a4be d204 d7be
000001c0: e350 95be 0cf6 c3be 09d5 febe 23a5 dfbe
000001d0: 1393 88be 968c adbe 2039 eebe 1f71 aebe
000001e0: 4e8f c3be e6d0 cfbe 4fba 9fbe b0bc dabe
000001f0: 485e 8fbe 9187 95be a42b f1be 999b a9be
00000200: ae06 f7bd 8541 8fbd 13d3 d7ba 5dc5 f6bd
00000210: 7330 5abd 3822 f3bb 9248 a7bd ed98 023e
00000220: c3e8 f43c 6c5f f4bc 2ab4 babd 9d9e 023e
00000230: cd8b 93bc 46cd 69ba 1512 fbbc 9f34 f5bc
00000240: 0d4b 99bb b2e4 34bc fb98 8c3d a0f5 653d
00000250: d87e 21bc d4e8 97bd fa4e 5e3d 6783 e63c
00000260: 7158 15b8 2090 08bd 9f0c 07bb 2126 b23c
00000270: 9a36 aabd 8e57 f53d 7f06 9fbd c841 ae3b
00000280: eb54 9f3c 0332 173d a225 883d 5d2e 55bd
00000290: c974 a33c 086f 233e 3a4e 553c 6e34 663d
000002a0: 4a5c 3bbc cef1 d73c 8979 8f3d 880c 46bd
000002b0: 5152 bcbc 5f53 29bd 03f0 6b3d 998e 3fbb
000002c0: c4ac f73c e6d5 303d c1f0 8abd 24c8 2a3d
000002d0: 8679 1fbc ab6b 643d cfb8 bf3d ba96 293c
000002e0: ed5d 91bd efb1 50bd fee7 863d c2d5 143d
000002f0: a376 ecbd 3679 5abc d0b5 623b 6fc2 5dbb
00000300: 72da b0be aabd acbe 16ee 0abf ec8b 94be
00000310: 6fb1 d4be b67c bebe a013 cabe 2da8 dbbe
00000320: b43d d8be 66e3 d8be 15e2 03bf 5a49 d9be
00000330: c7b5 ffbe 7bea c6be a5c3 d0be 5933 1bbf
00000340: 0409 f5be c43a cfbe a2bd acbe 0ad6 06bf
00000350: 7c65 08bf d88d f6be 3dc8 debe 5a42 07bf
00000360: d2e0 d7be 0ccf 0dbf 417a c4be 57cf dbbe
00000370: f546 e8be 7e75 b1be eda7 d1be c9fb e4be
00000380: 6d33 b6be 9f7e 12bf a64f 00bf 6dcc b4be
00000390: 0b1c d1be a865 a6be 4061 9cbe 16e0 8dbe
000003a0: c0e1 9fbe 2caa debe 92a6 edbe fbcb 9dbe
000003b0: 7e1c f7be cea8 adbe 07ab e7be d0c5 bdbe
000003c0: fb20 06bf 5c11 e9be 66ec debe 5779 10bf
000003d0: f756 c6be 62c4 c0be 2407 c8be a16b c5be
000003e0: 5c08 b4be 1913 10bf 9fb3 a7be ce8d f6be
000003f0: 2ebb a5be 01c3 08bf e981 debe 0f69 e2be

encoder.bias_hh_l0 f4 [256]
-0.37182835 -0.4500008 -0.4038732 -0.51016563 -0.47525415 -0.4746297 -0.47027385 -0.28232744
-0.47842583 -0.40745595 -0.48091686 -0.46000478 -0.5466581 -0.52145875 -0.4157982 -0.36613664
-0.46714184 -0.4168024 -0.42242578 -0.5422553 -0.5145202 -0.27053174 -0.58762366 -0.41884738
-0.34614915 -0.40179604 -0.53178865 -0.32748613 -0.48305345 -0.5735962 -0.4681669 -0.46043843
-0.3575458 -0.53732514 -0.42780718 -0.44712526 -0.3560062 -0.46030387 -0.448031 -0.35183087
-0.531179 -0.35213974 -0.587599 -0.28879252 -0.39014414 -0.5810353 -0.40369996 -0.4601221
-0.5961052 -0.4552575 -0.43906328 -0.48280105 -0.4828961 -0.41234207 -0.5337156 -0.53550965
-0.50256974 -0.40677327 -0.52140224 -0.4362004 -0.34089142 -0.32031423 -0.3407489 -0.45807445
-0.44225425 -0.31686777 -0.53469276 -0.3601418 -0.26211813 -0.22454879 -0.45571387 -0.5028991
-0.48237953 -0.306711 -0.26881814 -0.39049336 -0.35270935 -0.31291592 -0.4178219 -0.32326344
-0.3021174 -0.21498153 -0.39435816 -0.28754422 -0.37641028 -0.33076927 -0.25165722 -0.33515525
-0.39953613 -0.38729084 -0.4400771 -0.3923752 -0.3772843 -0.46683177 -0.29308176 -0.41997296
-0.23447302 -0.25129762 -0.37562612 -0.30502564 -0.4083383 -0.37865657 -0.3961568 -0.30855763
-0.2770483 -0.25556812 -0.36801687 -0.25562507 -0.4708684 -0.33478948 -0.36998326 -0.39013016
-0.2829829 -0.3191255 -0.33328906 -0.33047947 -0.28523403 -0.3281046 -0.42497984 -0.32423434
-0.4486739 -0.3881573 -0.39429536 -0.4116805 -0.30320755 -0.31123337 -0.35889265 -0.31261292
0.0348014 0.13317169 -0.0019092392 0.08333295 0.0075267726 -0.010855431 0.05608652 -0.030979322
0.06961352 0.047097452 0.033305235 0.053500004 -0.02981343 -0.00707295 0.07760449 -0.019981563
-0.014643569 -0.03728429 -0.044740047 -0.00061465456 0.0010194484 0.044087544 -0.05756723 0.045502055
-0.017473733 0.044484172 -0.010911516 -0.005478372 -0.11334572 -0.086661294 0.053206883 -0.0151591385
0.019215126 -0.009392064 -0.05949969 0.0037975905 0.09933036 -0.04291919 -0.08360143 -0.03297537
-0.06429727 -0.042038936 -0.00831794 0.06137237 0.010302755 -0.024703402 -0.03270551 0.028904252
-0.09767631 0.0084064035 -0.0018947446 -0.030529395 0.011871409 -0.015456321 -0.035843283 -0.061887182
0.0020668718 -0.06414776 -0.1335477 -0.109962456 -0.011923835 -0.102602206 0.02065263 -0.08526837
-0.3892094 -0.5194914 -0.4041653 -0.2754852 -0.41482475 -0.39900714 -0.5780479 -0.51887006
-0.485227 -0.39825258 -0.4129286 -0.517175 -0.47520486 -0.37929145 -0.369689 -0.41709217
-0.44119856 -0.3621323 -0.5164322 -0.46570233 -0.49125937 -0.328594 -0.32585287 -0.45971876
-0.45754877 -0.5499821 -0.35451412 -0.36200908 -0.5001177 -0.46491578 -0.36956894 -0.2574721
-0.32641977 -0.5371378 -0.56391543 -0.40715387 -0.46686408 -0.4207018 -0.422498 -0.44084644
-0.39933473 -0.32073593 -0.55984765 -0.39524245 -0.48990402 -0.40646005 -0.52549064 -0.32583955
-0.5457392 -0.435858 -0.49620777 -0.4595842 -0.47734064 -0.48668444 -0.5218753 -0.57585204
-0.51609343 -0.5245216 -0.4782335 -0.36922178 -0.15572818 -0.386885 -0.47763315 -0.3588294
00000000: 4960 bebe 8166 e6be 78c8 cebe 379a 02bf
00000010: 8354 f3be aa02 f3be bcc7 f0be 398d 90be
00000020: 3bf4 f4be 119e d0be bc3a f6be bf85 ebbe
00000030: c9f1 0bbf 527e 05bf 80e3 d4be 4376 bbbe
00000040: 372d efbe 2067 d5be 3148 d8be 3ed1 0abf
00000050: 99b7 03bf 2383 8abe 816e 16bf 2a73 d6be
00000060: 763a b1be 36b8 cdbe 4d23 08bf 43ac a7be
00000070: c852 f7be 33d7 12bf 92b3 efbe 96be ebbe
00000080: 3e10 b7be 248e 09bf 8b09 dbbe 9aed e4be
00000090: 7246 b6be f3ac ebbe 5264 e5be 2d23 b4be
000000a0: 59fb 07bf a94b b4be e36c 16bf 9ddc 93be
000000b0: f9c0 c7be bbbe 14bf c3b1 cebe 2095 ebbe
000000c0: 5a9a 18bf 8317 e9be e7cc e0be b331 f7be
000000d0: 283e f7be 801e d3be 96a1 08bf 2917 09bf
000000e0: 69a8 00bf 9644 d0be 9e7a 05bf a955 dfbe
000000f0: 5289 aebe 3a00 a4be a476 aebe bc88 eabe
00000100: 266f e2be 7e3c a2be a0e1 08bf 8264 b8be
00000110: 5934 86be 1ef0 65be 5453 e9be ffbd 00bf
00000120: 73fa f6be 3909 9dbe 88a2 89be bfee c7be
00000130: 5296 b4be 8436 a0be c1ec d5be c982 a5be
00000140: 22af 9abe 1e24 5cbe 50e9 c9be ff38 93be
00000150: d9b8 c0be 975a a9be 37d9 80be 7899 abbe
00000160: 0090 ccbe fc4a c6be c951 e1be 67e5 c8be
00000170: 682b c1be 9304 efbe d00e 96be b206 d7be
00000180: b219 70be 15aa 80be 1152 c0be 522c 9cbe
00000190: b811 d1be 46df c1be 10d5 cabe 44fb 9dbe
000001a0: 46d9 8dbe d3d9 82be b56c bcbe 4ae1 82be
000001b0: aa15 f1be 8769 abbe 726e bdbe 24bf c7be
000001c0: 22e3 90be 6b64 a3be dda4 aabe 9b34 a9be
000001d0: 320a 92be 53fd a7be f596 d9be 0b02 a6be
000001e0: 96b8 e5be 8ebc c6be 15e1 c9be c9c7 d2be
000001f0: 053e 9bbe fb59 9fbe c7c0 b7be cd0e a0be
00000200: ea8b 0e3d 295e 083e 703f faba 77aa aa3d
00000210: 25a3 f63b fada 31bc fbba 653d 59c8 fdbc
00000220: 8891 8e3d 42e9 403d 126b 083d d222 5b3d
00000230: 4b3b f4bc 34c4 e7bb 1aef 9e3d 60b0 a3bc
00000240: 94eb 6fbc 69b7 18bd 5741 37bd c520 21ba
00000250: 039f 853a 2495 343d 9ecb 6bbd 5d60 3a3d
00000260: 1325 8fbc 0935 363d 37c6 32bc ea83 b3bb
00000270: cd21 e8bd 7a7b b1bd 76ef 593d 095e 78bc
00000280: 0a69 9d3c 2ce1 19bc f2b5 73bd ffe0 783b
00000290: b76d cb3d 08cc 2fbd 3a37 abbd 2e11 07bd
000002a0: 49ae 83bd 0531 2cbd f847 08bc 9861 7b3d
000002b0: e3cc 283c ca5e cabc 36f6 05bd 9cc8 ec3c
000002c0: 840a c8bd 03bb 093c 1459 f8ba c818 fabc
000002d0: 4c80 423c 823c 7dbc 68d0 12bd 6a7d 7dbd
000002e0: 5b74 073b e75f 83bd bac0 08be ff33 e1bd
000002f0: 305c 43bc 1b21 d2bd b42f a93c 2fa1 aebd
00000300: 7446 c7be 63fd 04bf c1ee cebe 650c 8dbe
00000310: e963 d4be aa4a ccbe f2fa 13bf abd4 04bf
00000320: ac6f f8be c3e7 cbbe 616b d3be 9565 04bf
00000330: 0d4e f3be 7d32 c2be e047 bdbe 1b8d d5be
00000340: c7e4 e1be 6869 b9be e734 04bf 8970 eebe
00000350: 5986 fbbe 793d a8be 30d6 a6be 4260 ebbe
00000360: d543 eabe a0cb 0cbf e082 b5be 4159 b9be
00000370: b707 00bf 7109 eebe 2438 bdbe 62d3 83be
00000380: 7e20 a7be dd81 09bf c35c 10bf 7976 d0be
00000390: cf08 efbe 3a66 d7be a851 d8be a0b6 e1be
000003a0: 9a75 ccbe 8037 a4be 2d52 0fbf 385d cabe
000003b0: b3d4 fabe 881b d0be 8e86 06bf 71d4 a6be
000003c0: 90b5 0bbf c828 dfbe f20e febe 9f4e ebbe
000003d0: fe65 f4be b42e f9be 9f99 05bf 0a6b 13bf
000003e0: b31e 04bf 0c47 06bf 05db f4be a30a bdbe
000003f0: 3577 1fbe ca15 c6be 558c f4be 7db8 b7be

fc_mu.weight f4 [16, 64]
0.024739975 0.001223598 -0.12517674 0.009287496 0.005982991 0.040308487 0.029946672 -0.06500941
0.0016958859 0.04138076 -0.015417794 0.043244008 0.0534472 0.118319206 0.03906293 -0.009702215
0.006641061 -0.05097108 -0.06368249 0.014019801 -0.031968754 0.054133303 -0.05013049 -0.00464274
-0.017215146 0.09910606 0.010745156 0.007830457 -0.0007744356 0.055767637 0.037755534 -0.08686388
-0.04191148 0.028207323 -0.06663231 0.11421885 -0.0034506752 0.060077738 0.027854156 0.05247321
0.013686697 -0.054373097 -0.022990886 0.05853055 0.045753617 -0.025430316 -0.016217776 -0.0015480109
-0.03886751 -5.0282302e-05 0.020258011 -0.01729625 -0.016306521 0.067972176 -0.0021536578 0.05132327
0.011687478 0.020365983 -0.0052651116 0.00859467 0.030861279 0.05222286 0.047676172 -0.026299955
-0.005705314 -0.031509824 -0.040180102 -0.015535222 -0.10195272 0.056959104 -0.008008345 -0.016717898
-0.017353393 0.0064266194 0.02166614 0.18525842 0.009764238 -0.09363113 -0.010756618 -0.05604791
-0.012898846 0.04777546 -0.0367694 -0.032843 0.029640853 -0.056436453 -0.025720725 0.0042388304
0.034316525 0.058152225 -0.119910434 0.015087253 0.010736257 0.0336076 0.036314704 -0.09035969
-0.002108212 -0.051348686 -0.020775052 0.13050656 -0.008779351 -0.030660888 -0.06856633 -0.022001505
0.030921979 -0.0412123 0.013879959 0.021633351 -0.1123782 -0.0022727815 0.023843294 0.00839635
0.011477278 0.089126766 0.07983217 0.041298907 -0.060807962 -0.068408675 -0.10444382 0.02413248
0.012238315 0.005872521 0.022462806 0.024079604 0.039200872 0.12200872 0.023233624 -0.014040177
-0.09946093 0.085120745 -0.050154623 0.032598134 -0.123550326 -0.05300019 -0.060066905 -0.10017023
0.023581255 -0.030668551 0.06500816 -0.06084485 -0.0054361466 -0.015099911 -0.06947574 0.0057104123
0.06636807 0.12944117 0.015108492 -0.052583255 -0.032335244 -0.0022659444 0.070857905 0.039418627
0.036801815 -0.018088693 -0.018988645 -0.05771135 -0.01054604 -0.010558774 0.048306543 0.05715004
-0.043439403 -0.030112224 -0.03309762 0.05186975 -0.018041695 -0.01729797 -0.05701199 -0.05809231
0.017283691 0.030874833 -0.062108092 -0.01735763 0.007685797 -6.0938146e-05 -0.018533893 -0.048754532
-0.0041750604 -0.039573293 0.016480597 -0.0028597745 0.043309335 -0.04320232 0.0056488924 0.040867537
0.10108424 0.031975467 0.028504638 0.061008178 -0.11787076 0.05829621 0.040913995 -0.0068651265
0.08734095 -0.01617808 -0.10022866 -0.032542884 -0.023825198 0.036497295 -0.031953715 -0.022833426
-0.09616398 -0.02352164 -0.016918074 0.08005357 -0.08795459 0.042444713 0.017150965 0.026867118
0.011371082 0.04974983 0.028085092 0.04498973 0.0020513225 0.045604125 -0.032283437 -0.04734919
0.037051477 0.043864407 0.0049636727 -0.011009995 -0.14261374 0.021002768 0.0808797 -0.09504592
-0.04022948 0.02940516 -0.030065686 -0.015243555 0.06600148 0.045821816 -0.010785101 -0.011905619
0.051717535 -0.02221491 0.074947335 0.02125154 0.06626613 -0.095744744 -0.0045439377 -0.075104825
-0.008401117 -0.00019835934 -0.037172012 -0.017541151 -0.1051818 -0.015989574 -0.0119530475 -0.08536138
-0.020162107 0.012937036 -0.08831886 0.1018704 -0.004278822 -0.04685755 -0.0353777 -0.016368043
00000000: 7dab ca3c 2361 a03a 552e 00be 952a 183c
00000010: f70c c43b 831a 253d b952 f53c a723 85bd
00000020: 7d48 de3a df7e 293d ea9a 7cbc a120 313d
00000030: 74eb 5a3d 5751 f23d 7300 203d 0af6 1ebc
00000040: 429d d93b 0dc7 50bd f76b 82bd 4fb3 653c
00000050: abf1 02bd e2ba 5d3d a155 4dbd 2022 98bb
00000060: c706 8dbc 1ef8 ca3d 730c 303c 514b 003c
00000070: 7e03 4bba 9b6c 643d 8ca5 1a3d b1e5 b1bd
00000080: 5fab 2bbd 0b13 e73c 8576 88bd 93eb e93d
00000090: b924 62bb 1314 763d 662e e43c 26ee 563d
000000a0: 2b3e 603c 53b6 5ebd 6257 bcbc bbbd 6f3d
000000b0: 2568 3b3d 3d53 d0bc 24db 84bc a0e6 caba
000000c0: 8a33 1fbd 36e6 52b8 21f4 a53c deb0 8dbc
000000d0: 4195 85bc ff34 8b3d 6224 0dbb 5938 523d
000000e0: d67c 3f3c 90d6 a63c f586 acbb a9d0 0c3c
000000f0: cbd0 fc3c a3e7 553d 1748 433d 0173 d7bc
00000100: a5f3 babb 7210 01bd e493 24bd 7287 7ebc
00000110: 96cc d0bd f34d 693d 6f35 03bc f9f3 88bc
00000120: b428 8ebc 6496 d23b 307d b13c 62b4 3d3e
00000130: 2ffa 1f3c aec1 bfbd 873c 30bc 7e92 65bd
00000140: ae55 53bc 33b0 433d 839b 16bd 6286 06bd
00000150: 60d1 f23c e929 67bd 45b4 d2bc e3e5 8a3b
00000160: 7c8f 0c3d 0731 6e3d 9a93 f5bd 8730 773c
00000170: 20e7 2f3c 1fa8 093d babe 143d 800e b9bd
00000180: ee29 0abb 0053 52bd 7130 aabc 83a3 053e
00000190: 44d7 0fbc 8b2c fbbc 816c 8cbd 803c b4bc
000001a0: 1750 fd3c 3bce 28bd c468 633c 6d38 b13c
000001b0: 8b26 e6bd f2f2 14bb 0353 c33c d890 093c
000001c0: 310b 3c3c 1888 b63d 0c7f a33d 0b29 293d
000001d0: c511 79bd d919 8cbd a4e6 d5bd 7bb1 c53c
000001e0: 3783 483c 476e c03b eb03 b83c 9742 c53c
000001f0: 1891 203d b5df f93d 7154 be3c c508 66bc
00000200: 2cb2 cbbd c953 ae3d ef6e 4dbd 9f85 053d
00000210: f407 fdbd ba16 59bd b708 76bd 0d26 cdbd
00000220: 7a2d c13c 9d3c fbbc 0023 853d 7338 79bd
00000230: b421 b2bb 9e65 77bc 4c49 8ebd 691e bb3b
00000240: fceb 873d 3a8c 043e 9c89 773c 8a61 57bd
00000250: f671 04bd 3d80 14bb f31d 913d 6d75 213d
00000260: 80bd 163d bd2e 94bc 138e 9bbc bd62 6cbd
00000270: 4cc9 2cbc b5fe 2cbc 15dd 453d 2916 6a3d
00000280: 84ed 31bd e9ad f6bc 5f91 07bd 6075 543d
00000290: 2dcc 93bc 79b4 8dbc 6885 69bd 34f2 6dbd
000002a0: 8796 8d3c 38ed fc3c 0e65 7ebd 9731 8ebc
000002b0: 23d9 fb3b d697 7fb8 64d4 97bc d5b2 47bd
000002c0: f2ce 88bb 9b17 22bd 5102 873c 0e6b 3bbb
000002d0: 2165 313d eaf4 30bd 581a b93b b864 273d
000002e0: 4105 cf3d b5f8 023d 8f82 e93c b6e3 793d
000002f0: 3a66 f1bd 02c8 6e3d 6f95 273d dbf4 e0bb
00000300: d0df b23d e587 84bc af44 cdbd b04b 05bd
00000310: 102d c3bc 307e 153d e6e1 02bd 2a0d bbbc
00000320: 9ff1 c4bd 74b0 c0bc c697 8abc 20f3 a33d
00000330: 8921 b4bd 82da 2d3d 2e80 8c3c 6e18 dc3c
00000340: c64d 3a3c 7ac6 4b3d b512 e63c 2747 383d
00000350: 7b6f 063b 64cb 3a3d a33b 04bd 39f1 41bd
00000360: 4ac3 173d 2aab 333d 4ea6 a23b 4463 34bc
00000370: 5609 12be ff0d ac3c 42a4 a53d 6fa7 c2bd
00000380: abc7 24bd 17e3 f03c 504c f6bc 1bc0 79bc
00000390: c92b 873d a8af 3b3d feb3 30bc c90f 43bc
000003a0: c4d5 533d 0bfc b5bc fd7d 993d b617 ae3c
000003b0: 89b6 873d d215 c4bd 50e5 94bb 8fd0 99bd
000003c0: d7a4 09bc aefe 4fb9 ae41 18bd 76b2 8fbc
000003d0: 8e69 d7bd 91fc 82bc b7d6 43bc f2d1 aebd
000003e0: 012b a5bc ddf5 533c 85e0 b4bd 6ea1 d03d
000003f0: 5c35 8cbb b4ed 3fbd 35e8 10bd 4616 86bc

fc_mu.bias f4 [16]
-0.003237816 0.001850585 0.005598297 -0.009083874 0.01090377 -0.007145652 0.0014949729 0.002048471
0.0034177133 -0.0068387645 0.0030307367 0.006672875 0.0066402 -0.0072483784 0.001171084 -0.0023651342
00000000: 8a31 54bb 548f f23a eb71 b73b 87d4 14bc
00000010: baa5 323c 1326 eabb f7f2 c33a a43f 063b
00000020: b7fb 5f3b b717 e0bb 539f 463b 22a8 da3b
00000030: 0996 d93b ce83 edbb 0f7f 993a 5e00 1bbb

fc_logvar.weight f4 [16, 64]
0.0077294256 -0.024823785 -0.0114249475 -0.022519343 -0.023525743 0.061043758 0.10214813 0.052824948
0.0010995222 0.052684236 -0.015714454 -0.058746956 0.07670928 0.05983883 -0.026099442 -0.004041491
-0.05790982 -0.008064644 0.09531653 0.0013553377 -0.017903063 -0.081532024 -0.08144577 -0.13570571
-0.053373642 -0.03674144 -0.06459118 0.057376374 -0.022670494 0.012929814 0.0022447777 -0.001141513
-0.1264189 -0.0637902 0.06354629 -0.011189318 -0.0416403 0.08932184 -0.11214774 0.053432316
0.027847242 0.026279736 -0.035536896 -0.08662361 0.036280233 0.09265549 -0.115314186 0.08370907
0.02841287 0.0032780196 -0.04605619 -0.016134804 -0.034828477 0.12973124 -0.15574427 -0.00905834
-0.12323754 -0.013210458 -0.0613253 -0.13701452 0.07744217 0.07981094 -0.042968664 0.047564726
-0.14929608 0.043757293 -0.10193528 -0.083456405 0.013751266 0.021680301 0.0031280497 0.059815686
0.07476775 0.05746163 -0.015750451 0.012208204 0.0085211415 0.11781747 0.0041249623 -0.05229682
0.12498914 -0.048173495 -0.0072828587 -0.07572635 0.058251183 0.1124347 0.048767917 0.1107387
0.027259594 0.07771624 -0.02267472 -0.010677964 -0.07695709 0.0006718319 0.008033447 0.017579602
0.015476521 -0.006936437 -0.06328268 0.03772128 -0.11328233 -0.038097378 -0.02452204 0.08491038
-0.092262134 0.05153521 -0.010686182 0.052577656 -0.076338746 0.018683285 0.08592134 0.023640685
-0.035469234 0.011293748 0.086836174 -0.0056209713 -0.00547457 0.007696616 0.07827286 0.031136805
0.13128424 -0.15948002 -0.047235627 0.03227633 0.00019356408 -0.07048286 0.01755592 -0.08379654
-0.013793868 -0.028564518 0.012340043 0.052744027 0.010495913 0.013081024 -0.035162404 0.040340014
0.05004604 -0.024140382 -0.039353825 -0.06017718 -0.023010194 0.0002500681 -0.041809626 0.00766464
-0.05559603 -0.02342127 -0.035924714 -0.051906932 0.061739676 -0.048213717 0.056468017 -0.019499714
0.03371005 -0.13415165 0.114764765 0.06103697 0.15291932 -0.026437096 -0.11842424 -0.08489372
-0.09467508 -0.097297534 -0.024684384 -0.07234261 0.03988583 0.023603164 0.09373959 -0.079107165
0.024131237 -0.048566457 0.032539647 0.0014077169 0.1362881 0.021930015 -0.09252503 0.03406925
-0.040118836 -0.029955434 0.0026887497 -0.02069378 -0.08729659 -0.0059602247 0.034196835 0.0005016159
-0.0098489355 0.047406033 0.08716208 -0.043580916 0.11109214 0.021276273 -0.033112194 0.08743136
-0.01966069 0.043332808 0.037151586 0.09391196 -0.081569456 -0.0789769 0.07841199 0.0031713413
0.01985786 0.07085855 0.022603063 -0.059822615 -0.034829345 -0.10161291 0.10305752 0.0444422
-0.04338617 0.04285654 0.03431686 -0.00931966 -0.0553227 0.06271637 0.06256468 0.015148986
0.10059285 -0.07672133 0.037597463 0.047504958 0.033101443 -0.022437645 -0.03231244 -0.01253814
-0.1001407 0.04703316 0.025175596 -0.011582461 0.036903474 0.09146823 0.0101750195 -0.007139258
-0.119277485 0.013281109 -0.0072129644 -0.09240009 0.099744536 -0.08598538 -0.0622712 -0.046045713
0.02136554 0.09618062 0.037531927 -0.011029343 0.067470476 0.123607 0.07676293 0.020723112
0.0377492 -0.004940695 -0.0068650404 0.10957283 -0.003753568 0.046109527 -0.0049674665 -0.11575651
00000000: 1f47 fd3b 405b cbbc b42f 3bbc 7c7a b8bc
00000010: 0fb9 c0bc 0509 7a3d 0a33 d13d f95e 583d
00000020: d81d 903a 6dcb 573d 99bb 80bc a6a0 70bd
00000030: c119 9d3d 9019 753d 7fce d5bc 7c6e 84bb
00000040: d932 6dbd 9221 04bc 5035 c33d 96a5 b13a
00000050: 72a9 92bc 43fa a6bd 0acd a6bd 70f6 0abe
00000060: 529e 5abd 317e 16bd 6148 84bd 7d03 6b3d
00000070: 79b7 b9bc 92d7 533c 1f1d 133b d29e 95ba
00000080: f573 01be 70a4 82bd 8f24 823d 6753 37bc
00000090: 058f 2abd 5eee b63d b7ad e5bd d8db 5a3d
000000a0: e61f e43c 9a48 d73c 238f 11bd b867 b1bd
000000b0: 959a 143d 29c2 bd3d d829 ecbd a96f ab3d
000000c0: 1bc2 e83c 0bd4 563b 6aa5 3cbd 232d 84bc
000000d0: 4ea8 0ebd 44d8 043e 6d7b 1fbe 6f69 14bc
000000e0: f763 fcbd ad70 58bc 3d30 7bbd 894d 0cbe
000000f0: 009a 9e3d eb73 a33d e9ff 2fbd 3bd3 423d
00000100: 12e1 18be d93a 333d 72c3 d0bd 31eb aabd
00000110: fd4c 613c e39a b13c f7ff 4c3b 4b01 753d
00000120: d61f 993d e35c 6b3d 1707 81bc eb04 483c
00000130: 429c 0b3c 494a f13d b12a 873b 3135 56bd
00000140: 4efa ff3d 9251 45bd 0ca5 eebb 6b16 9bbd
00000150: cb98 6e3d 2a44 e63d dec0 473d f9ca e23d
00000160: 834f df3c b129 9f3d 56c0 b9bc a1f2 2ebc
00000170: ae9b 9dbd e01d 303a b89e 033c 1903 903c
00000180: 3c91 7d3c 0d4b e3bb 5a9a 81bd a181 1a3d
00000190: 9100 e8bd ff0b 1cbd 72e2 c8bc 7ee5 ad3d
000001a0: eef3 bcbd 9616 533d 1915 2fbc ab5b 573d
000001b0: 7d57 9cbd b00d 993c 87f7 af3d 1caa c13c
000001c0: 3048 11bd 6a09 393c 2ad7 b13d 2030 b8bb
000001d0: 0664 b3bb e533 fc3b 854d a03d 9d12 ff3c
000001e0: 606f 063e bb4e 23be 257a 41bd 2f34 043d
000001f0: 76f7 4a39 5159 90bd 6fd1 8f3c 859d abbd
00000200: adff 61bc 2300 eabc e42d 4a3c 1f0a 583d
00000210: 0df7 2b3c cb51 563c 7406 10bd 923b 253d
00000220: 14fd 4c3d 0dc2 c5bc 7a31 21bd 597c 76bd
00000230: e07f bcbc 921b 8339 9240 2bbd a927 fb3b
00000240: aab8 63bd f7dd bfbc cb25 13bd 5d9c 54bd
00000250: bee2 7c3d bf7b 45bd 024b 673d ddbd 9fbc
00000260: 8d13 0a3d 0d5f 09be ca09 eb3d e701 7a3d
00000270: e296 1c3e 9c92 d8bc 6888 f2bd c2dc adbd
00000280: 02e5 c1bd ee43 c7bd e836 cabc 5d28 94bd
00000290: 535f 233d 6c5b c13c 8bfa bf3d f002 a2bd
000002a0: dfae c53c 9fed 46bd 4b48 053d 2483 b83a
000002b0: 1c8f 0b3e 93a6 b33c c37d bdbd 338c 0b3d
000002c0: a653 24bd 1965 f5bc bc35 303b 0186 a9bc
000002d0: 8ec8 b2bd fd4d c3bb fb11 0c3d e07e 033a
000002e0: 6e5d 21bc d42c 423d 0882 b23d e781 32bd
000002f0: 4784 e33d 944b ae3c a7a0 07bd 360f b33d
00000300: 750f a1bc be7d 313d 432c 183d ea54 c03d
00000310: e30d a7bd a4be a1bd 7796 a03d 47d6 4f3b
00000320: f3ac a23c 4a1e 913d 0f2a b93c 8f08 75bd
00000330: 37a9 0ebd 6e1a d0bd d20f d33d 0609 363d
00000340: b2b5 31bd 578a 2f3d d68f 0c3d 7db1 18bc
00000350: 0e9a 62bd 7171 803d e921 803d 7433 783c
00000360: a003 ce3d 1320 9dbd ccff 193d 8f94 423d
00000370: 6195 073d 27cf b7bc 0d5a 04bd c56c 4dbc
00000380: 9116 cdbd d8a5 403d 0d3d ce3c 5dc4 3dbc
00000390: 1928 173d b253 bb3d 20b5 263c 70f0 e9bb
000003a0: c147 f4bd 0299 593c bb5a ecbb 423c bdbd
000003b0: dd46 cc3d 1a19 b0bd 1610 7fbd 6e9a 3cbd
000003c0: c906 af3c 58fa c43d 14bb 193d 6bb4 34bc
000003d0: f62d 8a3d ab25 fd3d e235 9d3d 84c3 a93c
000003e0: e89e 1a3d 8ee5 a1bb 22f4 e0bb b867 e03d
000003f0: 6cfe 75bb 58dd 3c3d 21c6 a2bb c011 edbd

fc_logvar.bias f4 [16]
-0.0017697108 -0.0035938728 0.0055941846 -0.0018727785 0.0077937744 0.0051043634 -0.000899638 -0.0030063398
-0.004079658 -0.0014057688 -0.002322315 0.00715091 0.00063594093 -0.0025933587 -0.0028762969 -0.005439675
00000000: a4f5 e7ba 2e87 6bbb 6c4f b73b 0578 f5ba
00000010: eb62 ff3b 8142 a73b afd5 6bba 0306 45bb
00000020: a7ae 85bb c641 b8ba fb31 18bb 2e52 ea3b
00000030: 46b5 263a 57f5 29bb 4180 3cbb 4d3f b2bb

shiptype_emb.weight f4 [17, 8]
-0.03821078 0.03491894 -0.41871047 -0.24125823 -0.06579754 0.51387864 -0.11544829 -0.7323239
-0.14851466 -0.34510958 -0.15459092 -0.20870067 0.37897238 1.3819058 -0.8396619 -0.039800644
0.3590048 0.8545143 -0.46978822 0.25686404 0.29782864 0.2859131 0.35124543 0.50491625
0.5490932 -0.9534256 0.23521681 -0.29102328 0.3357543 1.1939782 -0.2949124 -0.32303894
-0.19037303 0.26090902 -0.054934334 -0.8530264 -0.3603457 1.1020385 0.39721435 -0.7203793
0.917275 -1.4960117 0.07721784 -0.022497924 0.5790724 0.9477767 -0.64583445 -0.30132055
-0.50739485 0.5016259 -1.3164489 -0.4343479 0.022409363 -0.8538145 0.68138677 -1.1852092
-0.17845054 -0.1763705 -0.9050762 0.0452379 0.32011262 0.07351597 -0.42573836 -0.61811465
-1.006968 0.77976835 -0.7257709 -0.644502 -0.09725126 0.6005158 0.17121838 -0.46089238
-0.14497066 -0.17344533 -0.07163812 -0.5992699 -0.03256982 1.3978003 -0.2002963 -0.18816757
0.802149 -1.1316018 0.15341789 0.02558406 0.48596084 0.8131 -0.54845434 -0.27754337
-0.3631278 -0.2608088 -0.65039945 -0.3938789 0.29979882 0.48492518 -0.13687688 -0.40349168
0.17745543 -0.77962714 -0.47126353 0.29747835 0.69695306 0.72071487 -1.1589607 -0.09118319
1.6474795 -0.29819703 0.6103515 -0.09523266 -0.9438551 0.07809682 0.8312395 -2.175116
1.1394231 -1.3153796 0.3560995 -0.5555534 -0.14407235 0.6499314 0.59113723 -1.1681398
1.0803711 -0.6213858 -0.30352408 0.7465497 0.1012639 0.091177434 -1.0129693 -1.0724233
0.20414397 0.19236736 -0.7654366 1.4581393 -0.33368436 -0.20237154 1.3360608 0.49586168
00000000: e882 1cbd 2a07 0f3d 3861 d6be 660c 77be
00000010: dcc0 86bd 8d8d 033f 2770 ecbd 9479 3bbf
00000020: 3a14 18be 34b2 b0be 154d 1ebe a1b5 55be
00000030: ab08 c23e 4ae2 b03f 15f4 56bf 0006 23bd
00000040: 7acf b73e 73c1 5a3f 1588 f0be af83 833e
00000050: ff7c 983e 3463 923e 71d6 b33e 3142 013f
00000060: 5f91 0c3f b313 74bf addc 703e 0101 95be
00000070: fde7 ab3e 47d4 983f c2fe 96be 5c65 a5be
00000080: 26f1 42be de95 853e d302 61bd f05f 5abf
00000090: 3b7f b8be 990f 8d3f ae5f cb3e c76a 38bf
000000a0: 89d2 6a3f 507d bfbf 6324 9e3d 914d b8bc
000000b0: 173e 143f 7ea1 723f 6855 25bf b046 9abe
000000c0: a1e4 01bf 8e6a 003f 6681 a8bf d962 debe
000000d0: d793 b73c 9693 5abf 5d6f 2e3f efb4 97bf
000000e0: bdbb 36be 789a 34be 13b3 67bf 604b 393d
000000f0: cde5 a33e 8a8f 963d 61fa d9be c33c 1ebf
00000100: 54e4 80bf e69e 473f 1fcc 39bf 15fe 24bf
00000110: ab2b c7bd 67bb 193f df53 2f3e 16fa ebbe
00000120: 3073 14be a79b 31be 02b7 92bd c169 19bf
00000130: ee67 05bd 1feb b23f 791a 4dbe 00af 40be
00000140: a359 4d3f 54d8 90bf 9419 1d3e aa95 d13c
00000150: dccf f83e 5227 503f 8167 0cbf 2a1a 8ebe
00000160: e3eb b9be bb88 85be 9480 26bf 7faa c9be
00000170: 3b7f 993e 1d48 f83e 7429 0cbe 7696 cebe
00000180: e0b6 353e a595 47bf 7449 f1be 154f 983e
00000190: 846b 323f c580 383f d358 94bf 41be babd
000001a0: 9ce0 d23f 48ad 98be ff3f 1c3f 5709 c3bd
000001b0: 7da0 71bf 3af1 9f3d 1dcc 543f 1a35 0bc0
000001c0: 9ed8 913f 5c5e a8bf ac52 b63e bf38 0ebf
000001d0: b487 13be e761 263f c554 173f 9b85 95bf
000001e0: 9a49 8a3f 2413 1fbf 8267 9bbe e21d 3f3f
000001f0: 7363 cf3d 3cbb ba3d faa8 81bf 2b45 89bf
00000200: 1e0b 513e f3fb 443e a7f3 43bf 4fa4 ba3f
00000210: add8 aabe 7c3a 4fbe 0a04 ab3f 95e1 fd3e

fc_z_st_to_h.weight f4 [64, 24]
-0.018861959 -0.0015903015 -0.024656821 -0.01603357 -0.036053244 0.02468485 -0.0045540947 0.015404257
0.0112560615 -0.010810808 -0.012607035 -0.03301835 -0.00012881348 0.0039598993 -0.006707456 -0.016151307
-0.10311193 -0.10952789 0.249636 -0.25809753 -0.07081293 -0.051906597 -0.40485135 -0.3873903
-0.00030945236 -0.027217392 -0.011408863 0.008870951 -0.011972086 0.005733714 -0.0004534665 -0.00189437
0.0019910238 0.008542985 0.0015184943 -0.014191024 -0.0059963753 0.011663084 -0.0052060643 -0.0028566436
-0.096446455 0.028829189 0.19076589 -0.16792956 -0.26045606 -0.31881115 -0.3023038 0.060485404
0.0017167515 0.014134628 -0.004059862 0.0046726246 -0.006064681 0.012391185 -0.018383147 -6.385955e-05
0.0020690602 -0.0018056264 -0.00605663 -0.0017599298 -0.007671221 -0.0012614784 0.002532921 -0.005088935
0.095389076 -0.005859077 0.0201645 -0.2304149 0.04110106 -0.06045046 -0.098898 -0.06020947
-0.0042658905 -0.003498082 0.0071578897 0.002098066 0.01111164 -0.015011404 -0.00683054 -0.012369644
-0.0070175426 0.00788969 0.0056433645 0.009524541 -0.0045843245 0.0065640234 -0.0013850208 0.011989185
0.045359604 0.08996337 0.041336436 0.005699246 0.046991795 -0.021971323 0.105183154 0.07670868
0.01459483 -0.004672523 0.018506372 0.0047295946 0.033741448 -0.041028008 0.005702039 -0.018769538
-0.013861528 0.015459102 0.018482981 0.03656233 0.0058403756 0.010209264 0.0039741476 0.02720796
-0.023087172 0.08595727 -0.08477992 0.35019043 0.078838564 -0.17086408 0.42529958 0.27783266
0.01725269 -0.0028571484 0.02493526 0.01581682 0.036484785 -0.037297536 0.002084593 -0.018241972
-0.009641409 0.020700278 0.017642379 0.026550641 -0.006772937 0.008344349 0.01050097 0.026072994
0.11433102 0.0903418 -0.045024063 0.21994688 0.19401631 0.11257416 0.3464029 0.28820032
0.004744969 -0.00361429 0.00403827 0.0006848828 0.017335227 -0.00991711 0.0024142896 -0.00327726
-0.0037224952 0.0070032654 0.0082469825 0.0121666975 -0.0004307581 -0.0005046173 0.008417245 0.010211976
0.0989276 0.055395916 -0.18994251 0.17235094 -0.04038839 0.17147613 0.13789016 0.06426408
-0.0008414546 0.012669414 -0.01004884 0.015435284 -0.014666059 0.03564908 0.0041850624 -0.004952097
0.02321696 -0.017251607 0.0049119196 -0.042734094 -0.0114716245 -0.021249084 -0.0030917153 -0.018675871
0.24253042 0.2742862 -0.27956253 0.16296294 0.48412123 0.42690313 0.19528319 -0.28263387
-0.017737547 0.020103998 -0.031939857 -0.009754387 -0.062401593 0.055847988 -0.026361257 0.017136931
0.007179534 -0.017867446 -0.03806057 -0.039453227 -0.011388178 -0.005013173 -0.006272472 -0.038748115
0.002130639 0.060742933 0.16727574 -0.30439952 -0.16950059 -0.27149838 -0.26409623 0.075744145
0.005633805 0.008160842 -0.018643383 0.004894544 -0.026158324 0.032215275 0.02138632 0.011520675
0.017380716 -0.016558293 0.002058256 -0.036578253 -0.013102216 -0.016609073 -0.004039732 -0.018538317
-0.20627986 0.034387443 0.06059383 -0.05559764 -0.18928151 -0.076533124 -0.21313208 0.038398795
-0.0007879482 0.00063017884 0.010365853 -0.01533475 -0.0046951477 9.998276e-05 0.031911608 0.0038125431
-0.013636018 -0.013479463 0.008168339 0.006549421 0.011267492 -0.0030089095 -0.019004766 0.005676357
00000000: 6584 9abc aa71 d0ba 1afd c9bc d558 83bc
00000010: 91ac 13bd e237 ca3c 843a 95bb 2362 7c3c
00000020: 586b 383c d11f 31bc bd8d 4ebc 403e 07bd
00000030: 1b12 07b9 0bc2 813b 38ca dbbb bf4f 84bc
00000040: 592c d3bd 2950 e0bd 94a0 7f3e 5c25 84be
00000050: 5f06 91bd 039c 54bd ad48 cfbe 0558 c6be
00000060: fe3d a2b9 02f7 debc 3dec 3abc 7757 113c
00000070: 9126 44bc e1e1 bb3b 3ebf edb9 824c f8ba
00000080: d67b 023b e0f7 0b3c 3708 c73a 7881 68bc
00000090: 3e7d c4bb 8516 3f3c a297 aabb 8736 3bbb
000000a0: b885 c5bd 312b ec3c 2258 433e baf5 2bbe
000000b0: 7f5a 85be 373b a3be 90c7 9abe 8bbf 773d
000000c0: 9f04 e13a ed94 673c 9708 85bb d11c 993b
000000d0: 3bba c6bb 6604 4b3c 4198 96bc 56ec 85b8
000000e0: 1299 073b c5aa ecba b276 c6bb 72ad e6ba
000000f0: de5e fbbb 3158 a5ba 5dff 253b 15c1 a6bb
00000100: 595b c33d 80fd bfbb 0630 a53c e2f1 6bbe
00000110: 9659 283d e79a 77bd 098b cabd 359e 76bd
00000120: e2c8 8bbb 1440 65bb bb8c ea3b b57f 093b
00000130: 990d 363c 64f2 75bc b9d2 dfbb 0caa 4abc
00000140: 6af3 e5bb c243 013c f9eb b83b d20c 1c3c
00000150: 1a38 96bb 0517 d73b 9689 b5ba 496e 443c
00000160: feca 393d b73e b83d 6550 293d bec0 ba3b
00000170: 787a 403d 34fd b3bc 446a d73d 7119 9d3d
00000180: 271f 6f3c f71b 99bb ad9a 973c b7fa 9a3b
00000190: 7934 0a3d fc0c 28bd 2cd8 ba3b 93c2 99bc
000001a0: 761b 63bc 2c48 7d3c 9f69 973c 62c2 153d
000001b0: 9f60 bf3b c244 273c 9139 823b 3ae3 de3c
000001c0: 4f21 bdbc 5d0a b03d 18a1 adbd 294c b33e
000001d0: 1d76 a13d fef6 2ebe dec0 d93e 1540 8e3e
000001e0: 8355 8d3c ff3e 3bbb 0845 cc3c 4792 813c
000001f0: 1271 153d 4dc5 18bd ab9d 083b 3070 95bc
00000200: 00f7 1dbc a193 a93c c086 903c bb80 d93c
00000210: 83ef ddbb bdb6 083c 430c 2c3c 0897 d53c
00000220: 6226 ea3d 1f05 b93d 276b 38bd c139 613e
00000230: 36ac 463e 488d e63d b95b b13e fe8e 933e
00000240: af7b 9b3b b9dd 6cbb 7753 843b b589 333a
00000250: 9b02 8e3c 607b 22bc 0f39 1e3b 4dc7 56bb
00000260: 1bf5 73bb a67b e53b 5a1e 073c d456 473c
00000270: 60d7 e1b9 4b48 04ba 7ce8 093c 2250 273c
00000280: 8e9a ca3d d4e6 623d 4a80 42be c47c 303e
00000290: 4c6e 25bd 7097 2f3e 1433 0d3e e39c 833d
000002a0: 1095 5cba 6093 4f3c e4a3 24bc 46e4 7c3c
000002b0: e949 70bc c504 123d d922 893b 3345 a2bb
000002c0: 7e31 be3c 3e53 8dbc 2bf4 a03b f209 2fbd
000002d0: 7bf3 3bbc 8f12 aebc 609e 4abb 24fe 98bc
000002e0: e559 783e 3e6f 8c3e d222 8fbe c2df 263e
000002f0: bdde f73e 0c93 da3e 51f8 473e 63b5 90be
00000300: 554e 91bc 24b1 a43c 5ed3 02bd ddd0 1fbc
00000310: d098 7fbd dcc0 643d 90f3 d7bc c062 8c3c
00000320: 4c42 eb3b c05e 92bc 66e5 1bbd b599 21bd
00000330: 7b95 3abc 8b45 a4bb 4f89 cdbb 58b6 1ebd
00000340: 31a2 0b3b 95cd 783d 554a 2b3e 41da 9bbe
00000350: 9091 2dbe d601 8bbe 9f37 87be bf1f 9b3d
00000360: c89b b83b 0db5 053c 02ba 98bc 6962 a03b
00000370: fb49 d6bc 2af4 033d 5d32 af3c 37c1 3c3c
00000380: 0162 8e3c 42a5 87bc cee3 063b 14d3 15bd
00000390: adaa 56bc c00f 88bc ba5f 84bb abdd 97bc
000003a0: 073b 53be d9d9 0c3d 3c31 783d 5aba 63bd
000003b0: 03d3 41be 66bd 9cbd 4c3f 5abe 0e48 1d3d
000003c0: 4f8e 4eba 9632 253a 8ad5 293c 9a3e 7bbc
000003d0: c1d9 99bb d6ad d138 bfb5 023d dcdb 793b
000003e0: 9b69 5fbc f7d8 5cbc 7fd4 053c 879c d63b
000003f0: 499b 383c 2031 45bb e2af 9bbc bc00 ba3b

fc_z_st_to_h.bias f4 [64]
-0.1432007 -0.26447964 -0.33294564 0.09470905 0.14345974 0.14771862 0.33750653 0.49915406
-0.28047705 -0.12433261 -0.5175334 0.48277047 0.13546835 0.23516479 -0.2867833 0.15907805
-0.06484786 -0.42480648 0.13708228 0.1439357 0.37384146 -0.08497087 0.5175669 0.2529923
-0.43918315 0.107663795 0.25602242 -0.21485265 -0.0020897582 -0.27138552 0.038390085 0.025022784
-0.13089254 -0.17701817 -0.2743704 0.34749287 0.32803386 0.3935141 -0.1354816 0.3539574
0.033010177 0.04880477 -0.32193574 -0.13924618 0.23620772 -0.3175098 0.077546634 0.05180806
-0.48443022 -0.35557282 -0.33296156 -0.06219658 0.013589442 -0.035141047 -0.51486456 0.17343935
0.31645986 0.3912352 0.17795081 -0.18522948 0.32239786 -0.24823731 0.2565948 0.041564774
00000000: 34a3 12be e069 87be da77 aabe d2f6 c13d
00000010: 1ce7 123e 8d43 173e a8cd ac3e 1f91 ff3e
00000020: b09a 8fbe 18a2 febd 127d 04bf b12d f73e
00000030: 37b8 0a3e 0acf 703e 43d5 92be 5be5 223e
00000040: f4ce 84bd 3c80 d9be 4c5f 0c3e e163 133e
00000050: 2668 bf3e 3505 aebd 447f 043f 3588 813e
00000060: 9ddc e0be d67e dc3d 5f15 833e 5502 5cbe
00000070: 53f4 08bb 0bf3 8abe ec3e 1d3d 95fc cc3c
00000080: b208 06be 4044 35be 477a 8cbe 96ea b13e
00000090: 0ef4 a73e ae7a c93e b0bb 0abe e839 b53e
000000a0: ae35 073d 83e7 473d c3d4 a4be 8d96 0ebe
000000b0: 70e0 713e a590 a2be c5d0 9e3d b034 543d
000000c0: 3d07 f8be a40d b6be f079 aabe d7c1 7ebd
000000d0: 40a6 5e3c 0ff0 0fbd 2ace 03bf 169a 313e
000000e0: 0707 a23e fb4f c83e bd38 363e ccac 3dbe
000000f0: 5511 a53e ec31 7ebe 6560 833e d33f 2a3d
